SRNN/gridsearch/vrnn_m/model_state_dict.pt (torch, 26379 bytes, 13 tensors)

cells.0.gate_i.weight f4 [32, 1]
000000 c7 c6 f9 3e 65 c1 81 3f 9e 06 5a bf 11 85 09 bf
       0.48784468 1.0137144 -0.8516635 -0.5371867
000010 fc 95 84 3e e5 56 b2 bd a7 e3 7c 3f 3e b5 34 be
       0.2589568 -0.0870798 0.9878487 -0.17647263
000020 12 fe e0 be 48 2e 2a bf eb 65 6f bf 99 7d 2b 3e
       -0.4394384 -0.6647687 -0.9351489 0.1674713
000030 15 9e d5 3b bc ed af 3d de 0d 6b 3f 86 67 88 3f
       0.006519089 0.08590266 0.91818035 1.0656593
000040 e9 81 5f 3f d8 39 97 3e ef 09 0c be 43 f7 05 be
       0.873076 0.2953632 -0.13675664 -0.13082604
000050 0e 58 43 bf 00 5c 4b 3f 7f 10 5a be ba 15 4e be
       -0.76306236 0.79437256 -0.21295355 -0.20125476
000060 71 9d 66 3e 17 8a 76 bf 16 17 a3 3e f9 f8 30 bf
       0.22520997 -0.9630446 0.3185355 -0.691299
000070 28 ba 12 bf f6 0c 82 be 43 71 7d be 18 ea 32 bf
       -0.573153 -0.25400513 -0.24750237 -0.6988845

cells.0.gate_i.bias f4 [32]
000000 49 5c 1c 3f d6 1b e8 be c0 39 77 3e de e4 0d bf
       0.61078316 -0.45333737 0.24143124 -0.5542735
000010 24 24 9c 3e 86 85 98 be b4 65 e2 be 1d 0a 83 be
       0.30496323 -0.2978937 -0.44218218 -0.25593653
000020 40 0b 8f 3e d6 91 de 3e 86 d1 12 bf 71 a4 4e 3f
       0.2793827 0.4347064 -0.5735096 0.8071967
000030 66 75 18 3c d0 6e 39 bd 34 f1 22 3f 49 2b 76 3e
       0.009305334 -0.045271695 0.63649297 0.2403995
000040 d5 05 5c bf 89 f0 51 3f 55 af c4 be 81 8f ce 3e
       -0.859464 0.8200765 -0.38415018 0.4034386
000050 74 48 a1 3e 9a a7 1e 3f fb 93 38 bf ec ec f3 be
       0.3150059 0.6197449 -0.721008 -0.47641695
000060 52 ce 77 be 97 ab 2b 3f 72 0b 1b 3d 76 ff a2 be
       -0.24199799 0.670587 0.037852712 -0.31835526
000070 40 bd 1d 3f fc b8 c7 3d 6e 9c d1 be fe d0 94 be
       0.616169 0.0975208 -0.4093966 -0.29065698

cells.0.gate_h.weight f4 [32, 32]
000000 b9 6d f5 3d 68 60 8a bd 60 fe c1 bd 7c 6a 8e bd
       0.119838186 -0.06756669 -0.09472346 -0.06953904
000010 32 62 61 bd 50 33 9e bd 75 52 45 bd 21 df 04 bd
       -0.055025287 -0.07724631 -0.04817434 -0.032439355
000020 e6 96 c5 bd 78 03 93 3d d4 33 43 3e cc 69 72 bd
       -0.09647922 0.07178396 0.1906274 -0.059182927
000030 08 61 59 be 39 4c fb 3d d1 8a 0f be f3 c7 01 3d
       -0.2122842 0.12270398 -0.14017798 0.031684827
000040 f2 06 82 3e 1c 3e 64 be bc 20 90 bd 85 0e 1c be
       0.25395924 -0.22289318 -0.070374936 -0.15239914
000050 99 10 ca bd d6 aa a6 bd 81 34 51 3e 26 96 0f be
       -0.09866447 -0.08138053 0.20430185 -0.14022121
000060 86 61 ed 3d da c7 14 be fa d4 fc 3d 58 26 ef 3d
       0.11590867 -0.14529362 0.123453096 0.11677235
000070 7d 49 d4 3d 24 a9 73 bd 3c d2 5f bd e1 08 80 3d
       0.10365579 -0.059487477 -0.054643854 0.062516935
000080 43 6d 63 3c c3 59 b8 3d 1b c9 92 bc 40 60 7e 3b
       0.0138810305 0.09001496 -0.01791816 0.0038814694
000090 16 1f da bd 1a 1d 68 3d 8b 16 e8 bd 27 b2 e1 bd
       -0.106504604 0.05666838 -0.11332425 -0.11020308
0000a0 f3 b5 a6 bd 70 e1 fe 3d b6 17 0f be d5 a9 aa 3d
       -0.08140173 0.124453425 -0.13973889 0.08333174
0000b0 2e 43 2f 3d 90 77 a7 3d e9 f8 21 3e 15 d7 ce 3d
       0.042788677 0.081771016 0.15817608 0.100996174
0000c0 17 24 4c bd 92 31 4a bd 7d 08 b9 bd 58 96 08 be
       -0.049839105 -0.04936368 -0.09034822 -0.13338602
0000d0 b5 d9 93 3d b8 2c 49 bd 9f 70 0f bb 88 2a 51 bd
       0.07219259 -0.049114913 -0.0021887196 -0.05106595
0000e0 1c 1f a9 3c b4 16 20 be 3c 83 d2 3d 87 46 c1 bd
       0.020644717 -0.1563366 0.10278937 -0.0943728
0000f0 ee 1d ad 3d 41 c2 d4 3d 14 f0 13 3e 22 8d 07 3e
       0.08452974 0.103886135 0.14447051 0.13237432
000100 67 6f 24 be fe 26 84 3d c6 5d 2d bd 62 58 e2 bd
       -0.16058122 0.0645275 -0.042325757 -0.11052014
000110 00 3f cc 3d 3a 93 14 3d 08 cc 93 bd 04 1c d8 bd
       0.09972954 0.03627322 -0.0721665 -0.105522186
000120 ae b6 b6 3d 6b 13 a6 bc cd 5b dc 3d c4 b6 08 be
       0.08921562 -0.020272931 0.10759697 -0.1335097
000130 0c 7b ae bd d6 1f 1e be 90 8a 02 be cd 42 00 be
       -0.08519563 -0.15441832 -0.1274817 -0.12525482
000140 78 1c c6 bc 01 1a 70 bd 5f c5 8f 3d 28 83 34 3d
       -0.024183497 -0.05861855 0.070200674 0.044070393
000150 07 20 c0 3d 43 90 22 3e d6 3b 97 bd ab b3 94 3d
       0.09381109 0.15875344 -0.0738446 0.072608314
000160 21 c3 88 bd 98 74 16 3e 40 62 42 bd 08 c0 41 3d
       -0.06677843 0.14692914 -0.04745698 0.047302276
000170 eb 5f d7 3c f1 e8 6d bd c9 1f 13 3e 07 22 28 be
       0.026290854 -0.05808348 0.14367594 -0.1641923
000180 a8 e1 56 3e 51 c1 bb bd 01 61 32 3d bf d8 9b bd
       0.20984519 -0.091677316 0.04354954 -0.076097004
000190 07 b0 e0 b8 0a 37 68 bc 68 1b e3 3d 7a 13 d4 bc
       -0.0001071394 -0.014173279 0.11089212 -0.025888193
0001a0 66 bb 52 be 52 f0 9c bd 9f c6 31 bd c2 54 2d bd
       -0.205793 -0.07663025 -0.04340231 -0.04231716
0001b0 61 6b 4b be f5 c9 fd bd 99 6a ac bd 6f ec 99 bc
       -0.1986518 -0.12392036 -0.084187694 -0.018789498
0001c0 f2 60 88 3b e3 de 18 3e 29 0a 99 bc 0c 5c 34 3b
       0.0041619474 0.14928775 -0.018681603 0.0027520685
0001d0 82 08 57 bd c9 1c bc 3d 9b 2b 19 be c2 58 ac 3d
       -0.052498348 0.09185178 -0.1495804 0.08415367
0001e0 ab 5c 48 be 5f 43 f2 3d 3b 7d 02 3e 6e ba 96 3d
       -0.195666 0.11829256 0.12743084 0.073597774
0001f0 b8 37 1d 3e 78 53 55 3d 99 2f 32 be 52 6e 04 3c
       0.15353286 0.052081555 -0.1740097 0.008082943
000200 f4 44 60 bd 5a 5c 0a be af 61 df 3d 9a b1 af 3d
       -0.05475326 -0.13511792 0.109073035 0.08578797
000210 0e 93 c1 bb db 89 16 bd 93 c1 47 3d c0 5e 24 bd
       -0.005907423 -0.036752563 0.04876859 -0.040129423
000220 87 cc c7 bc 6a 4b 40 3d 30 d0 c2 bd 3b 6f c8 bd
       -0.024389518 0.04694692 -0.09512365 -0.097868405
000230 76 67 8a 3d 19 77 db 3d 43 e1 86 3d aa c7 36 bd
       0.06758015 0.107160755 0.06585934 -0.04462401
000240 cc c5 2e be 19 60 21 3d d7 ed 85 3d 7b 43 03 be
       -0.17067641 0.039398286 0.06539505 -0.1281871
000250 27 e8 a9 3d 92 86 f0 3d b3 0a bd bd fd 75 b7 3d
       0.08296233 0.11744417 -0.09230556 0.08958051
000260 a0 83 97 bd f8 b2 83 3d ac d9 8f bd b3 f7 de 3b
       -0.07398152 0.0643062 -0.070239395 0.0068044304
000270 18 47 41 bd 50 c1 f3 ba 67 50 61 3c 10 c8 1b 3e
       -0.04718694 -0.001859704 0.01375208 0.15213037
000280 6c 01 e0 3d a1 42 ec bb 1b c7 49 bd 1e 87 93 3d
       0.10937771 -0.007210091 -0.049262147 0.07203506
000290 a1 03 c5 3d 6f 6f 75 bd 61 a9 1a be 6f 57 66 bd
       0.09619833 -0.059920724 -0.15103675 -0.056235727
0002a0 f9 c2 5a be 24 ce 0e 3c 17 c2 34 be 65 db c7 bd
       -0.21363439 0.00871614 -0.17652164 -0.09758643
0002b0 0b cf 98 3d 39 83 49 3d 26 53 b2 3d 62 4f 3b 3e
       0.07461365 0.04919741 0.087072656 0.18292001
0002c0 2c 74 62 bc 1c d5 27 3e d8 10 10 3d e7 02 a8 3d
       -0.013821643 0.16389889 0.035172313 0.082036786
0002d0 a7 29 f4 3d 5b 63 08 3e cd 71 11 3e d6 7f d4 bd
       0.11922007 0.13319151 0.14203568 -0.10375945
0002e0 99 9d e7 bc c2 4b 91 bd 19 5d b3 3c 4e 12 5f 3e
       -0.02827339 -0.07094528 0.021894978 0.21784326
0002f0 46 c3 86 3c 2a d6 b6 bd 5b 25 db bd 74 7e a7 3d
       0.016450536 -0.08927567 -0.10700484 0.08178416
000300 31 de cf 3d fb 50 bb bd 38 26 da bd c7 d6 04 be
       0.101498015 -0.09146305 -0.10651821 -0.12972556
000310 d7 2f 99 3d 52 54 07 3e 6a f1 13 be 4f 8b f9 3d
       0.07479828 0.1321576 -0.14447561 0.12184774
000320 9e 34 16 3e aa da 8b 3d 36 30 0e be 7e 31 a7 bd
       0.1466851 0.06828816 -0.13885579 -0.08163737
000330 e2 33 01 3c 16 35 9e bd 96 07 e4 bc 71 48 b8 3c
       0.007885905 -0.07724969 -0.027835649 0.02249548
000340 13 95 da 3c 10 1b 91 3d f2 22 f5 3d 11 2b af bd
       0.026682412 0.0708524 0.11969556 -0.08553136
000350 c7 c6 0b be 4a 98 9f 3d ea 7c 19 bd 6f 43 2f 3d
       -0.13650046 0.07792719 -0.037472643 0.04278892
000360 90 db 4f bb cc 3b 11 be 9e e0 cf 3d b0 39 16 bc
       -0.0031716563 -0.14182967 0.10150264 -0.009169027
000370 79 ca e4 3d 10 f2 c6 bd 1a 16 4e bd 9d 70 03 be
       0.11171431 -0.097141385 -0.050314046 -0.12835927
000380 d7 6e e4 bc 6c 00 ba 3d 5b 97 62 bd 6a 14 9c 3d
       -0.027884884 0.09082112 -0.055320125 0.07621081
000390 21 1a 5e 3b 81 14 eb bd 27 25 fa 3d 97 65 43 be
       0.0033890086 -0.1147852 0.122141175 -0.19081722
0003a0 9b 74 84 bb 7d 2f e7 3d 41 95 8e bd 03 56 30 3d
       -0.004042221 0.112883545 -0.06962062 0.043050777
0003b0 c8 b9 01 be ec 66 c9 bc 50 86 81 bd 99 62 8a 3d
       -0.12668526 -0.02458521 -0.06324446 0.06757087
0003c0 e7 6c d2 bd 53 eb 86 3d f0 bd 49 bd 75 fe 44 3d
       -0.10274678 0.06587853 -0.049253404 0.04809423
0003d0 8f 24 84 bc 35 8a a1 bd a6 13 e4 bd f1 59 b5 3d
       -0.016130714 -0.07887689 -0.1113656 0.088550456
0003e0 63 40 d8 3d 5b 53 5f bd 1c b8 3c bc 75 e8 95 3c
       0.10559156 -0.054522853 -0.0115185045 0.01829932
0003f0 55 6d 35 3e d9 b7 06 3d 51 e2 0d 3d 23 7a 38 bd
       0.17717488 0.032890175 0.03463966 -0.045038354

cells.0.gate_h.bias f4 [32]
000000 41 55 d2 bd b5 77 0b 3e 7f 35 2c 3e 53 01 0d bd
       -0.10270167 0.13619883 0.16817282 -0.03442509
000010 7b 2b 14 be e1 b6 04 3e 37 3e bf bd 46 44 8c 3c
       -0.14469711 0.12960388 -0.093380384 0.017122399
000020 e1 0d e5 3c 58 8c ec bd 44 84 db 3d 25 68 7a bc
       0.02796072 -0.11550206 0.10718587 -0.015283619
000030 7f 1d 0a bd e2 8b 52 bd 84 8e 5d be 00 0b 83 3d
       -0.033719536 -0.051402934 -0.21636397 0.063985825
000040 e8 87 4b 3c d7 54 ad 3d e7 86 d2 bd 10 a4 0d be
       0.012422539 0.084634475 -0.10279637 -0.13832116
000050 6d 02 f5 bd 94 1b 6c be db 50 09 3d 4d 9b 40 3e
       -0.11963353 -0.23057395 0.033524375 0.18809243
000060 a4 48 fd 3c 06 c6 ef bd 61 79 22 be c2 4a d3 3d
       0.030918427 -0.11707692 -0.15866615 0.10316993
000070 3e 71 0f be ef 01 cc bd 31 13 e9 bc 12 a4 dd 3c
       -0.14008042 -0.09961306 -0.028451534 0.027055774

cells.1.gate_i.weight f4 [32, 32]
000000 92 97 49 3e 1a 44 c2 bc fa e1 e1 bd 3a 63 35 be
       0.19686726 -0.023714114 -0.1102943 -0.17713633
000010 a9 42 da bd ad 2a 3b bd e5 e3 1f 3e 19 3e c6 3d
       -0.10657246 -0.045694996 0.15614279 0.09679813
000020 7d de 32 be 63 79 98 bd d6 14 46 be df cc 3d bd
       -0.17467685 -0.07445028 -0.19343886 -0.04633796
000030 03 11 e9 bd 3e a7 13 3e 13 cd a6 bb bf 4e 54 bd
       -0.11380198 0.14419267 -0.0050903647 -0.05183291
000040 97 cb c4 bc e8 6a 01 bd 6d e2 3a be 0a 3a 3f 3e
       -0.02402286 -0.031596094 -0.18250437 0.18674484
000050 d3 35 34 be bf 43 82 bc 40 10 0f be a5 6a 02 3d
       -0.17598657 -0.015901444 -0.13971043 0.031839985
000060 83 7d e6 bd 5e 2d e5 bd 38 00 de 3d ac 66 80 be
       -0.11254408 -0.11190294 0.108398855 -0.25078332
000070 e1 d1 c6 bd d6 00 cf bd af d2 39 3d db 3b dd bd
       -0.09708 -0.10107581 0.04536694 -0.10802432
000080 a3 a0 2f 3d 98 fe 6f 3e fd bf 39 be bf dc 6a 3d
       0.042877804 0.23436964 -0.18139644 0.057339426
000090 80 ae 94 bc 2a 1d 13 3d 36 af 6b 3d ad 3b 13 bd
       -0.018149614 0.035916485 0.05754014 -0.035945583
0000a0 47 d1 e6 bd ba 07 29 be 3b 36 b5 bd 62 03 86 3d
       -0.11270385 -0.16506854 -0.08848234 0.06543614
0000b0 75 f6 e9 3d 1e 68 eb 3d 0b 04 a4 3c b5 d7 9b bd
       0.11423961 0.11494468 0.02002146 -0.07609502
0000c0 4b 3a 00 3e 31 d7 d2 3d 33 64 d5 3d 4f 20 82 3c
       0.12522237 0.10294951 0.10419502 0.015884547
0000d0 a3 9b 2a be b2 44 38 3d e6 3e d8 bd da 18 bb bd
       -0.16660933 0.044987388 -0.10558872 -0.091355994
0000e0 3a 0f 1d bd 42 5b 71 bd 54 96 d3 3b 2a 45 17 be
       -0.0383446 -0.05892492 0.0064571295 -0.14772478
0000f0 6e 36 c2 3d 60 94 2e bd 3a ca c7 bd 8b 04 2a 3c
       0.09483038 -0.04262197 -0.097553685 0.01037706
000100 1f 33 a2 bc 2a 60 76 bd c5 f0 8e bd b5 a1 d9 3d
       -0.019799767 -0.060150303 -0.06979517 0.10626546
000110 65 52 0f 3e 6c 8b 93 3d 48 45 70 3d 18 84 70 bd
       0.13996275 0.07204327 0.05865982 -0.058719724
000120 8e 3d 87 3d 67 ee ee 3d 97 f4 99 bd 8b 80 0b 3d
       0.066035375 0.116665654 -0.07517355 0.034058135
000130 6f cc 43 3d 93 b5 cc 3c f5 cf 01 3e 19 34 aa 3d
       0.047802385 0.024988925 0.12676986 0.08310718
000140 90 60 93 bd 43 7e d7 bd 79 19 f4 bd 3a 4e af bc
       -0.07196152 -0.105221294 -0.11918921 -0.021399606
000150 b7 d4 64 3c 96 20 2f 3d df 94 2d bd bc ce 70 3a
       0.013966731 0.042755686 -0.042378303 0.0009186079
000160 d8 18 58 bb 17 f2 59 bd 18 65 1f be fb d0 e8 3c
       -0.0032973792 -0.05320939 -0.15565908 0.028419962
000170 fe c3 53 bb 9d dc 10 3e f4 f5 c7 bc da ae 0d 3e
       -0.0032312865 0.14146657 -0.024409272 0.13836232
000180 3b b7 b6 bd a0 77 8a 3e 86 58 50 be 72 06 ee bc
       -0.08921667 0.27044392 -0.20346269 -0.029055808
000190 2f 10 0b be d2 36 5b bd 06 28 b1 3d 0d 0b d2 bd
       -0.13580392 -0.053519078 0.08650212 -0.10256014
0001a0 10 1f 81 3d f3 1d fc 3d 7d 13 c1 bc 83 b1 ed 3d
       0.06304753 0.123104 -0.023568863 0.11606123
0001b0 d8 df a0 3d 04 29 c8 3d f9 3f 57 3c db ab af bd
       0.07855195 0.09773448 0.013137811 -0.08577701
0001c0 a0 b8 00 be 11 32 0f bc b3 56 f5 bc c2 03 dc 3d
       -0.12570429 -0.008739964 -0.029948568 0.10742904
0001d0 08 f7 b4 3d 67 1d 7e bc b7 ea 79 3c c7 ff a0 bc
       0.0883618 -0.01550994 0.015253714 -0.019653214
0001e0 0e 97 68 bd f6 ee 4a be be 5b 1b 3e e3 73 37 be
       -0.056784682 -0.19817719 0.15171716 -0.17915301
0001f0 51 ab a0 bc f4 17 09 3d a3 83 13 3c a6 3c b1 bd
       -0.01961294 0.03347011 0.009003553 -0.08654146
000200 b4 cf bd 3d 2c 56 50 be 98 b6 da 3d bf ff 33 3e
       0.09268132 -0.20345372 0.10679358 0.17578028
000210 a8 62 fa 3d 4b aa 93 bd 53 99 31 be 22 0d 2b bc
       0.122258484 -0.07210215 -0.17343645 -0.010440143
000220 c3 4f f6 bd 58 ea 0c 3e 81 6b 44 3e eb 59 b1 3d
       -0.12026932 0.1376127 0.19181634 0.086597286
000230 b3 dd 03 be 81 2c 58 3a e0 c3 d4 3d 3c 46 68 3d
       -0.1287754 0.00082463777 0.10388923 0.056707606
000240 b8 e8 7d 3c 52 76 ff bd 3a 1b b2 3d f5 90 e5 bd
       0.015497379 -0.1247374 0.08696599 -0.11209289
000250 d8 dc 20 3e 56 48 41 3d c3 71 e4 bd f6 2c b3 3d
       0.15709245 0.047188126 -0.11154511 0.0874881
000260 54 07 04 be 8c 2a b1 3d f1 37 fc bd 2b 31 52 3c
       -0.1289342 0.08650693 -0.123153575 0.012829105
000270 ef 47 3f 3e 76 b7 3a 3e 44 21 25 3e 19 db cb 3a
       0.18679784 0.18234047 0.16125971 0.0015552967
000280 0a 0f 83 3c 83 78 ac bd 6d 6e 92 3e df d3 db 3d
       0.015998382 -0.08421423 0.28599873 0.107337706
000290 b4 6d 14 3e fb 8f 10 3e 8c b3 94 be 27 0c 48 3d
       0.14494973 0.14117424 -0.29043233 0.048839714
0002a0 7e 05 90 bd 8f 76 22 3e c3 c5 28 3d 97 6d e6 bd
       -0.070322976 0.15865539 0.041204225 -0.11251371
0002b0 24 84 29 be 0f 52 87 bc 31 95 3f bd 48 a9 31 be
       -0.16554314 -0.01651862 -0.04677314 -0.17349732
0002c0 95 66 96 bc d2 a9 b5 3d b6 2c bc bd 83 8f e7 3d
       -0.018359462 0.08870281 -0.091882154 0.113066696
0002d0 a5 94 3f bc 09 ca 5a be da d8 b7 bd a8 a1 d7 bd
       -0.011693154 -0.21366133 -0.08976908 -0.1052888
0002e0 a4 2f c5 3d 81 68 2c 3e 9f bf 09 3c fd 8b 23 3e
       0.09628227 0.1683674 0.008407502 0.1597137
0002f0 c7 61 14 3e 8b 70 2e 3e 76 c3 57 bd 15 e4 05 3e
       0.14490424 0.17035119 -0.05267664 0.13075288
000300 95 f3 a0 bc 9a 25 d6 3d 05 7e c9 bd 4d 03 e9 bc
       -0.019647399 0.10456391 -0.098384894 -0.028443957
000310 04 1b 64 bd 71 39 9c bd a4 b6 fe 3c 0b 3d 3f bd
       -0.055689827 -0.076281436 0.03109295 -0.046689074
000320 9a d8 94 bd 27 50 8c 3d 00 08 07 bd 79 c9 25 3d
       -0.07267876 0.06851225 -0.032966614 0.040475342
000330 e7 92 33 3b 4a 93 d0 ba cd d1 14 3c 13 80 6b bd
       0.0027400793 -0.0015913036 0.0090832235 -0.057495188
000340 aa 27 fb 3d 25 b3 fb bc fc 54 3f bd 57 f8 08 be
       0.12263425 -0.030725071 -0.046711907 -0.13375984
000350 11 91 d0 3d 61 1c 6b bd bf 0f 8c bd d9 8c d3 3c
       0.10183919 -0.05740011 -0.06838941 0.025823997
000360 fd ce 10 bd ff be d5 bd 33 2c ba bc 88 17 ef 3d
       -0.03535365 -0.1043682 -0.022726154 0.1167441
000370 ec a1 0d 3d 35 3f 1a 3d 20 64 dc bd 12 22 d3 bd
       0.03457825 0.037657935 -0.10761285 -0.10309233
000380 d7 96 ce 3c ad 8d 00 be c7 52 06 3e 52 ad 04 be
       0.02521841 -0.12554045 0.13117515 -0.12956741
000390 25 84 0b 3e 0a 84 ab bc 3f 91 b7 bd b5 f3 a5 3c
       0.13624628 -0.020936985 -0.0896325 0.02025781
0003a0 5c 12 9a 3b c5 d3 36 be 15 60 fd bd b5 c5 e6 3c
       0.0047018956 -0.17854221 -0.12371842 0.028170446
0003b0 89 a7 4d 3e ba 8d 08 3d 2b d5 0d be bb 4b b7 3d
       0.20083441 0.033338286 -0.13850848 0.08949991
0003c0 af 93 25 be 44 53 05 3e a7 bd fd bd 24 82 1d bb
       -0.16169618 0.13020045 -0.12389689 -0.0024033869
0003d0 0c 4e 20 3e 61 0f 37 3d 05 64 1d 3d b4 b7 47 bd
       0.15654773 0.0446924 0.038425464 -0.048759177
0003e0 d3 95 73 3d bf f3 67 bd 5a 56 cf 3c 80 2b ac bc
       0.059469055 -0.05662894 0.02530973 -0.021016836
0003f0 24 e0 4d 3d c6 83 48 bd dc 7c 15 3e 67 94 c0 3d
       0.050262585 -0.048953794 0.14598411 0.094033055

cells.1.gate_i.bias f4 [32]
000000 e1 72 07 3e 32 2c 14 be 22 c7 8b bd bd 97 82 bd
       0.13227417 -0.14469984 -0.06825091 -0.06376598
000010 83 61 64 3d 21 24 9d bc c5 4a 63 3b 87 a9 d9 bd
       0.055757057 -0.019182267 0.0034682017 -0.10628038
000020 52 22 2d bd 85 0a b5 bc 3e ae 55 bd 0d ed 28 bc
       -0.04226906 -0.022099743 -0.052168123 -0.010310424
000030 0a 84 88 3c fd d7 2f 3e fd 0c 99 3d 43 7f ab bc
       0.016664524 0.17172237 0.074731804 -0.020934707
000040 60 7a eb bd 18 fe d2 3d 4e ed 2e 3d eb d0 44 be
       -0.114979506 0.10302371 0.04270678 -0.19220321
000050 0b dc c5 3d ef 0c 7c bd f9 2f 12 3e 28 ce b9 bd
       0.096611105 -0.061535772 0.14276113 -0.09072524
000060 15 c9 ed bb 92 6a 9c 3d 55 44 0c 3e c9 dc af bd
       -0.007256637 0.07637514 0.13697942 -0.08587033
000070 6d e6 02 be 95 b9 a2 3c 0c 05 a0 bd 5b 42 00 be
       -0.12783213 0.019863883 -0.078134626 -0.12525313

cells.1.gate_h.weight f4 [32, 32]
000000 f5 c9 3b be fe ea 6e bd 8f 83 91 3d d4 17 39 be
       -0.18338759 -0.058329575 0.07105171 -0.18075496
000010 74 e2 c1 3d 7c 6b 4c bd ad a8 a9 3d 92 fb 29 3e
       0.09467021 -0.049907193 0.082841255 0.16599873
000020 5a 47 91 3d c6 f9 3f bd 65 96 b2 3d 12 8b 1d 3e
       0.07093687 -0.046869062 0.08720092 0.15385082
000030 59 86 30 3b f4 de 2d be 16 9d 08 be d3 31 b3 3c
       0.0026935546 -0.16979581 -0.13341174 0.021874344
000040 4c b3 07 3e 4d fd 8b b9 d5 9b 7f bd 80 b6 20 3c
       0.1325199 -0.0002670087 -0.062404472 0.009809136
000050 3c 3d 4b bd 91 80 70 be 48 45 02 be 21 25 9d bc
       -0.049618945 -0.23486544 -0.12721741 -0.019182744
000060 ba 62 9d 3d 01 ff 1f bc 82 91 8c bd 1d 3d f1 bd
       0.07684846 -0.0097653875 -0.06863691 -0.117792346
000070 83 bc f0 bd f5 24 dc 3d a9 15 a7 3d 80 b9 db bd
       -0.11754706 0.107492365 0.08158428 -0.10728741
000080 46 a4 37 be b8 8c a6 bd 96 81 8c 3d 3b ac 23 be
       -0.17933759 -0.08132309 0.06860654 -0.1598367
000090 91 fe 96 3d c9 0d 07 3e c1 bd 5f bd 4d 38 41 3d
       0.073727734 0.13188852 -0.054624323 0.047172833
0000a0 ae 0e ea bd ae c2 f7 bd 8a e3 77 3e f5 62 e2 3d
       -0.11428581 -0.12097679 0.24207893 0.11054031
0000b0 e4 99 e8 3c 7a f3 bd bd 88 67 10 3e b5 18 59 bd
       0.028393693 -0.09274955 0.14101994 -0.053002078
0000c0 20 3d af 3b db 60 80 3d b1 e3 12 3e ef b4 44 bd
       0.005347863 0.06268474 0.1434467 -0.048024114
0000d0 a8 e4 cd 3d 13 d9 26 3d 9c 71 e6 bc a2 53 f4 bc
       0.10053378 0.04073436 -0.028130345 -0.029825035
0000e0 a3 29 0d bd b2 70 44 3d f6 5d 94 bd fe 47 0e 3e
       -0.034463536 0.047959037 -0.07244484 0.1389465
0000f0 62 2f 0d 39 ab 5f 44 3d e5 67 23 3e f7 80 28 bd
       0.0001346446 0.0479428 0.15957601 -0.041138615
000100 b7 1d 66 be 13 70 f0 bd 7d 85 2d be e3 f7 14 bc
       -0.22472273 -0.117401265 -0.16945453 -0.009092304
000110 28 ef 1b bc 24 2e 08 3e 4f d4 1d 3d 6c 36 eb bd
       -0.0095174685 0.13298851 0.03853255 -0.114849895
000120 af ba 8f 3c 14 fe f2 bd 4d 0d 9a bd 39 3b 20 3d
       0.017545072 -0.11864868 -0.07522068 0.03911898
000130 0d a0 ae bd c1 5b 24 be 79 46 42 bd 23 0d cc bc
       -0.08526621 -0.16050626 -0.04743049 -0.024908608
000140 58 f2 9a 3c 86 02 7a 3d 04 a4 94 3b a0 92 55 3e
       0.018914387 0.061037563 0.0045361537 0.20856714
000150 9e 05 87 3d d9 4c 1d 3d f9 07 ef bd 29 9c 72 3e
       0.06592868 0.038403366 -0.116714425 0.23692383
000160 97 29 f0 bd 40 55 1d be 0e b8 12 3d 9c ed ed 3d
       -0.11726683 -0.15364552 0.03582006 0.11617586
000170 77 34 61 3b cf 44 bf bd 3b 34 fc 3d 98 2b 18 be
       0.0034363547 -0.09339296 0.1231465 -0.1486038
000180 67 43 91 bd 07 bb bf bd b0 45 af bd b5 e2 2b be
       -0.07092934 -0.093618445 -0.08558214 -0.167857
000190 3f dc 10 be a8 6d fc bd 1d cd e3 3d 7a a8 13 3d
       -0.14146517 -0.12325603 0.11123107 0.036049344
0001a0 db 7b 04 3d 3d de aa bc 8f 8a 6c bc 17 7e 07 3e
       0.03234468 -0.020857925 -0.014437332 0.13231693
0001b0 1f c5 01 3d fa ab 95 3d e7 5e 3c 3d 65 a0 02 bd
       0.03168213 0.073081926 0.045988943 -0.031891245
0001c0 98 16 01 bd 20 9e af bc 1c 2f 2f 3e ca 74 03 be
       -0.031515688 -0.021437705 0.17107815 -0.1283752
0001d0 36 bd b2 bd eb 0f c9 3d d4 e6 22 3e 94 79 f0 3c
       -0.08727495 0.09817489 0.15908366 0.029354848
0001e0 48 6d be 3c 85 a7 bb bc 7c 2b 57 3d b7 71 19 3e
       0.023245469 -0.022907028 0.052531704 0.14984785
0001f0 f6 78 e8 3d 0d 2f 80 3d 00 26 52 3d 59 8b 91 3d
       0.113511965 0.06258974 0.05130577 0.071066566
000200 b8 28 95 bd 68 f6 5c be d9 4c 2f 3d b1 53 ab 3c
       -0.07283157 -0.21578372 0.042797897 0.02091393
000210 0e ba c6 3d 29 d5 6e 3e cf 83 4e 3e ad 99 9a 3c
       0.09703456 0.23323502 0.20167468 0.018872106
000220 ff 8a 74 3d 1b 09 8c bd 6c bf f6 bd 45 dd 0e 3e
       0.05970287 -0.06837674 -0.120482296 0.13951595
000230 a2 ef ca 3c 11 f3 3a 3d 48 c3 c5 bc 24 4e e3 3d
       0.024772469 0.045641962 -0.024140969 0.110988885
000240 5b cb 1a bd 3f 5b bc bd a0 22 ee 3d 31 01 6f 3e
       -0.03779159 -0.09197091 0.11627698 0.23340298
000250 dc 99 7e bd 66 08 3f bd 93 ae f9 bc 5a 8e 05 3e
       -0.06215845 -0.04663887 -0.030478751 0.13042584
000260 bb 64 24 be da 39 9e 3c e4 a1 d4 3d 74 6c 29 3e
       -0.1605405 0.019314695 0.10382441 0.16545278
000270 50 ec 61 be 0c af 98 3b 9f 49 0c 3d 31 7a 77 bd
       -0.22062802 0.004659539 0.034249898 -0.060419265
000280 56 97 af 3c 9a 31 f0 3b df ff ad bc c5 f4 9c bd
       0.021434467 0.0073301317 -0.021240173 -0.076638736
000290 3b 4c 38 be 35 40 23 bd a1 bb 55 be 5f 17 35 3e
       -0.1799783 -0.039856154 -0.20872356 0.17684697
0002a0 bd 3a d4 3d fb 85 c6 bd bf b0 f0 3b 51 0f 37 bd
       0.10362766 -0.096935235 0.0073452885 -0.04469234
0002b0 6e b5 9f 3d 7d 07 b9 bd a7 48 23 3d 9f b7 6e bb
       0.07798277 -0.090346314 0.03986421 -0.0036425365
0002c0 84 3a fc bd 50 a1 98 3c ad da 4a 3d 3c e3 db 3a
       -0.123158485 0.018631607 0.04952495 0.0016776095
0002d0 b9 54 29 3e 3e af 88 bc ed 4d 16 3c 8d d5 53 3c
       0.16536225 -0.016685124 0.009173852 0.012929332
0002e0 e0 33 a3 bd 49 aa 59 3d c4 fc b1 3d 5c 07 7e 3c
       -0.07968879 0.053140912 0.08690789 0.015504684
0002f0 42 cb cb 3d c6 51 a3 3d 55 e4 d6 bd 47 39 af bd
       0.09950878 0.079745814 -0.1049277 -0.08555847
000300 c7 17 90 bd fe 81 0d be 55 02 1f 3e a3 0c a7 bd
       -0.07035785 -0.1381912 0.15528233 -0.08156707
000310 5a d2 fd 3d 1b 3b 8c bc f0 1f 0f be 74 47 d4 bd
       0.12393637 -0.017118027 -0.13977027 -0.10365191
000320 75 7c c1 3d 9b aa d7 bd c0 7e 80 3b ad 8d a2 bd
       0.094475664 -0.10530587 0.00392136 -0.07937179
000330 2d 1a d8 bd 97 45 be 3d 91 3e 47 3d 48 d9 5c 3d
       -0.10551868 0.09290617 0.048643652 0.053918153
000340 53 5e 1d be b9 e9 1d bd 97 d6 b4 bd 8f ed 89 bb
       -0.15368013 -0.038552973 -0.08829992 -0.0042092274
000350 0b 4d c1 bd 91 c8 02 3e 10 70 9a 3c bf 46 1e 3d
       -0.09438523 0.12771823 0.018852264 0.038641687
000360 45 50 9b 3c a3 6a 20 3e fa e3 70 3d c2 4f 3a 3e
       0.018959174 0.15665679 0.058811165 0.18194488
000370 33 9e 01 be de a1 51 bc cb bf 60 bd 16 05 c4 bd
       -0.12658004 -0.01279494 -0.054870408 -0.095712826
000380 b6 fc 70 bd da 5b 0a 3d 43 f4 86 bc c3 3b 43 3d
       -0.058834754 0.033779003 -0.016473895 0.047664415
000390 f3 1d 4b be 69 2c 4b 3c a2 82 20 bd 8c dd 0a be
       -0.19835643 0.012400725 -0.03918708 -0.13561076
0003a0 92 d4 3c bd 01 63 4b 3d 2a b7 43 3e fd dc 88 3d
       -0.04610116 0.049654964 0.1911284 0.06682775
0003b0 b2 3f e1 bd 54 f4 e7 3c 1f 03 07 3d 08 25 bc bc
       -0.10998477 0.028314747 0.03296196 -0.022966877
0003c0 a9 f5 f8 3d 8a 18 38 3e c8 b0 43 3d aa 89 21 3e
       0.12156231 0.17978111 0.047776014 0.15775171
0003d0 9e db 62 bd f1 02 a7 bc 35 d9 cc bd 34 43 12 3e
       -0.055385225 -0.020387145 -0.100023665 0.14283448
0003e0 c1 a8 15 3e 1d 4a 9b bd 7d 96 04 3d f8 c8 fd bd
       0.14615156 -0.07582495 0.03237008 -0.12391847
0003f0 de 2e c0 3d 2c d9 93 3d a7 02 67 3d a7 6c f0 3d
       0.09383939 0.072191566 0.056399014 0.11739474

cells.1.gate_h.bias f4 [32]
000000 68 80 a1 bd 2a b3 20 3e c8 96 6c bd 63 ad 39 3d
       -0.0788582 0.15693346 -0.057760984 0.04533137
000010 47 81 14 be 2a 18 b3 bd 20 c5 d9 bd 66 b9 77 bd
       -0.1450244 -0.08744843 -0.10633302 -0.060479544
000020 57 d7 1e be 67 b2 37 bd 5a 4b 18 be ab 0e 02 3e
       -0.15511833 -0.044847872 -0.14872494 0.12700908
000030 2d 99 cb 3d f8 56 c7 3d d7 ac 08 be 2c 47 7f bd
       0.09941325 0.09733385 -0.13347183 -0.062323734
000040 ec 5a 29 bd c9 23 1e be 81 92 41 bd 5c c1 10 3e
       -0.041346475 -0.15443338 -0.047258858 0.14136261
000050 13 c0 0b 3e 9e 34 94 bd 68 2a 8b 3d f8 68 5b bd
       0.13647489 -0.072365984 0.06795198 -0.053566903
000060 bc 79 7c 3c 2a b6 a6 3c 03 a3 07 3d 1c ef a6 3d
       0.015409883 0.020350534 0.033114444 0.08151075
000070 52 44 84 3b 48 0a 82 3c e2 ba b1 3d 15 50 e1 bd
       0.0040364647 0.015874043 0.08678223 -0.110016026

cells.2.gate_i.weight f4 [32, 32]
000000 bf 08 be 3d 66 44 2e 3e b1 2c f2 bd f7 2c 94 bd
       0.09279012 0.1701828 -0.118249305 -0.07235139
000010 b4 ae e0 3d c9 78 45 3d f1 68 78 bd 97 f9 78 3d
       0.10970822 0.048210893 -0.060646955 0.060784902
000020 fa 2e 0d be ca d6 52 3d 72 2f b6 bd 0b 75 8f bd
       -0.13787451 0.05147437 -0.08895768 -0.07004746
000030 8f 7a 1e 3e 03 3e 6e bc 6c f9 16 be 0e 22 32 be
       0.1547644 -0.014541152 -0.14743584 -0.17395803
000040 74 2c 17 3d 41 b1 cb bd de 53 49 3d ea 39 3c be
       0.03690763 -0.09945918 0.049152248 -0.18381467
000050 f7 fe 00 3e de 61 f3 bd 89 0e 1b be 46 37 27 be
       0.12597261 -0.11883901 -0.15142263 -0.16329679
000060 8e 10 59 bd 95 78 3e 3e 8a 3c 1e be 9e cf 16 be
       -0.052994303 0.18600686 -0.15452781 -0.14727637
000070 71 a9 fd 3d f2 ec d2 3b ae dd ce bd 94 21 15 3e
       0.12385834 0.0064369375 -0.10100876 0.1456359
000080 2e 10 0e 3e 2a 2d 89 bd c9 ed ab 3d aa 65 17 3d
       0.1387336 -0.066980675 0.08394963 0.03696219
000090 85 3e 18 be a4 cd 58 bd bd 04 0d be ee 0f 81 3c
       -0.148676 -0.05293049 -0.13771339 0.015754666
0000a0 24 6d 1b bd dd 63 b6 bc f1 eb 30 bd 78 e4 fd 3d
       -0.03794588 -0.022264415 -0.04319376 0.123970926
0000b0 a2 3f 9b bc 91 ec 2f 3e 02 17 4c 3e 67 a8 68 bd
       -0.01895124 0.17180087 0.19930652 -0.056801226
0000c0 e6 0a 22 be d9 38 89 3d e8 3d 69 3d 4f fd 81 3d
       -0.1582447 0.06700296 0.056943804 0.06347143
0000d0 4d 0a a5 3d 35 0c 02 bc fc 50 73 3d 5f c5 10 3d
       0.08058605 -0.007937481 0.059403405 0.035344478
0000e0 d0 d3 1a 3e 4a f7 04 bc e1 b1 81 be 2c 6f ae 3a
       0.15119863 -0.008115599 -0.25331023 0.0013308278
0000f0 39 6e 2a 3e 7c 43 13 be ce a2 41 3d 5e 42 83 bd
       0.16643609 -0.14381212 0.047274403 -0.06409143
000100 85 39 44 3e 8a 72 8e 3c 9d 48 41 bd 9d 2d 10 be
       0.19162567 0.0173886 -0.04718839 -0.140799
000110 6f a6 f7 3d 2e e1 2a bd 26 fe 0f bd d8 63 a8 3b
       0.120922916 -0.041718654 -0.035154484 0.0051388554
000120 80 b2 02 3c 09 fb 6b bd 5e c3 0a be 8b c7 f1 bd
       0.007977128 -0.057612453 -0.13551089 -0.11805638
000130 d1 7e f5 3d 9d c7 e2 3d 8d f4 12 3e fa d3 5f bd
       0.11987079 0.110732295 0.14351101 -0.054645516
000140 4e 78 a1 3d 7c 26 3c bd 2e b9 0e 3e 41 5e 59 be
       0.078842744 -0.04593514 0.13937828 -0.21227361
000150 98 be cc 3c 42 a1 53 bd 1b 46 f0 3d a6 73 4b 3d
       0.024993226 -0.05166746 0.117321216 0.049670838
000160 a7 86 85 3d 87 4e 35 3e f5 f7 5b be 57 f7 9f bd
       0.065198235 0.17705737 -0.21481307 -0.07810848
000170 f9 88 00 be fd 6e 00 be 39 52 aa 3d cc cb 17 3e
       -0.12552251 -0.12542339 0.08316464 0.14823836
000180 16 15 0a 3d 5e 0a fc bd 8a 49 07 be 62 4a 27 be
       0.033711515 -0.12306665 -0.13211647 -0.16336969
000190 5a a9 b6 3d d4 ab be 3c 6b 1e f4 3d 6a a2 c5 3c
       0.0891902 0.023275293 0.11919864 0.024125297
0001a0 bd b3 e8 3c f1 0c 82 3d 22 24 a7 3d 29 d0 21 be
       0.028406018 0.063501246 0.08161189 -0.15802063
0001b0 af e1 91 3d f6 33 8a 3d 3a 9a 00 be 27 66 00 bd
       0.07123124 0.06748192 -0.12558833 -0.03134742
0001c0 1b b4 f0 bd d5 e2 bc 3d 81 fa e3 bd 4d ee 9f bd
       -0.117531024 0.09222952 -0.11131764 -0.07809124
0001d0 97 46 fb 3d 2c c6 02 3e 46 86 3f 3e a4 b0 db 3d
       0.12269323 0.12770909 0.18703565 0.10727051
0001e0 e6 7e a7 bd d3 55 42 3d 00 48 11 be fe ee 8c bd
       -0.08178501 0.04744513 -0.14187622 -0.06881522
0001f0 e7 c5 ca 3c 61 d9 07 be 58 6d 31 3e b5 06 be 3c
       0.02475257 -0.13266517 0.17326868 0.023196558
000200 ad 95 5c be d8 53 4c 3d 69 e8 21 bd 3c 7e b6 bd
       -0.21541472 0.049884647 -0.039528284 -0.08910796
000210 fb 8a a8 3d 70 29 8b 3e dd 73 10 3e d8 a5 75 bb
       0.082296334 0.27180052 0.14106698 -0.0037482884
000220 4e 90 8e 3d 3b 1b 06 bd a1 53 de bc f2 b1 9f bc
       0.06961118 -0.032740813 -0.027139487 -0.01949403
000230 cd de 66 bc 9c aa 6b be 01 65 3b bd 66 20 35 bd
       -0.014091206 -0.23014301 -0.04575062 -0.04422035
000240 54 a4 27 3e a0 50 01 be 48 b5 1d 3d fa b1 e0 3d
       0.1637128 -0.12628412 0.03850296 0.10971446
000250 e7 61 dc 3d 37 78 15 bd ac 15 67 3d 78 89 db 3d
       0.10760861 -0.0364916 0.056417152 0.107195795
000260 b9 36 4f be 24 1c 03 3e 1d dc 5f 3e ae 90 97 3d
       -0.20235719 0.12803704 0.2186131 0.07400642
000270 ef 0c db bd b7 53 13 3d 94 64 18 be 5b f5 3b 3e
       -0.10695826 0.03596851 -0.14882118 0.18355314
000280 14 52 1a be dc be 40 3d 3e 75 78 3b 57 57 2d bd
       -0.15070373 0.047057018 0.0037911679 -0.042319622
000290 67 f6 f3 bd ba 44 d2 3c f7 16 bd 3d 5d 51 02 3e
       -0.11912232 0.025667537 0.09232896 0.1272635
0002a0 6e 2e 38 3b 6b c1 06 bc f1 60 19 be 52 14 d7 bb
       0.0028103846 -0.008224825 -0.14978386 -0.0065637017
0002b0 44 52 93 3d 6a 97 48 3d ae 74 71 bd 3a dd 81 3d
       0.07193425 0.048972525 -0.058949165 0.06341024
0002c0 d6 f5 50 bd 4b 8f 3a be 8f c6 23 3c 15 dc f6 3d
       -0.051015697 -0.18218724 0.0099960705 0.12053696
0002d0 78 3d 09 3d 52 2a ef bd 30 89 17 3d d6 36 12 bd
       0.033505887 -0.11677994 0.036996067 -0.035696827
0002e0 60 67 41 3d 0c 10 28 3c c1 c7 85 3d 44 0d ac 3d
       0.047217727 0.010257732 0.06532241 0.08400968
0002f0 e2 9b 47 bc 9a 5d e3 3c 89 31 ba bc 42 09 e9 bd
       -0.012183161 0.027754594 -0.022728698 -0.11378719
000300 32 4f c9 bc 85 ab ea bc 75 db 4e bd 61 08 68 bd
       -0.024573896 -0.02864624 -0.05050226 -0.056648616
000310 df db a0 bc 63 bb 08 be af b4 d1 bc ab 83 f2 bc
       -0.019636093 -0.13352732 -0.025598852 -0.0296038
000320 fe bd 86 3b 89 03 8c bd a2 bd 76 bd 26 ed 51 bd
       0.0041120043 -0.06836612 -0.06023944 -0.051251553
000330 b6 98 61 bd 47 56 ce 3d 32 b0 2d be f3 0e 0a 3d
       -0.055077277 0.1007505 -0.16961744 0.033705663
000340 fe f1 c0 bd 97 67 ba 3c b3 66 ab 3d f0 7c c0 3d
       -0.09421156 0.022754474 0.08369198 0.0939883
000350 3c ff c2 3d 07 20 89 bd b9 ce 00 3e f0 ad 3b bd
       0.09521338 -0.06695562 0.12578858 -0.045820177
000360 06 d2 2b 3e 3e 83 e6 bc b5 39 cf bd 05 c0 76 bc
       0.16779336 -0.028138753 -0.101184286 -0.015060429
000370 1c a3 2b 3e 1c 78 f5 3d 99 1a 7c 3d 86 c4 b0 bd
       0.1676144 0.119858 0.061548803 -0.08631234
000380 09 79 25 be 20 7f fa bd d8 e4 cc 3d b2 5e 18 bc
       -0.16159452 -0.122312784 0.10004586 -0.009299921
000390 d1 ee 8c 3d 27 01 ca 3d d9 f4 a4 3c ca 14 db bd
       0.06881488 0.09863501 0.020136284 -0.106973246
0003a0 73 1d 99 3d 7a 00 97 3d 78 16 d8 3d 8d 53 37 bc
       0.0747632 0.07373138 0.105511606 -0.011189354
0003b0 ea cf 36 bd 26 e7 15 bb 4c e4 26 bd 4b 71 34 bd
       -0.044631876 -0.002287337 -0.040745065 -0.044053357
0003c0 0c 86 ba bd 1a 6e 00 be ef ec 8b 3c 67 dc 3b 3d
       -0.09107599 -0.12542 0.017080752 0.04586449
0003d0 1b f3 c2 bd 72 ba 8a 3d 06 8a e3 3d ca e4 30 bc
       -0.09519025 0.06773843 0.1111031 -0.010796735
0003e0 3c 07 c4 ba 07 8b 04 be 06 26 80 bd c9 06 a4 bc
       -0.0014955769 -0.1294366 -0.062572524 -0.020022767
0003f0 21 e0 a9 3b 5c 4d a4 3d 58 7e d9 bc d9 2e 4b 3d
       0.005184189 0.08022568 -0.026549503 0.049605224

cells.2.gate_i.bias f4 [32]
000000 f1 14 42 3e 43 14 1d be d7 d5 99 3d 38 36 1a bd
       0.18953301 -0.1533976 0.0751149 -0.037649363
000010 47 a4 ec 3d 7c f0 2e 3e fb 61 11 3e ba ee ef 3c
       0.11554771 0.17083925 0.14197533 0.029288638
000020 22 b4 55 be a2 6f c0 bd bb d9 51 3c e9 c3 22 be
       -0.20869496 -0.09396292 0.012808259 -0.15895046
000030 ce bd 1e 3e 17 eb 00 3e d4 74 dc bd da ea fd 3d
       0.15502092 0.1258968 -0.10764471 0.1239831
000040 b9 01 29 3e a9 0f f8 3d 99 56 fc bd 95 f3 0d bd
       0.16504563 0.12112362 -0.12321205 -0.034656126
000050 30 b2 0c be 4c 36 1b bd 48 7b cf bd e5 68 fa 3d
       -0.13739848 -0.03789358 -0.10130936 0.12227038
000060 eb 3f 0f 3e 99 e3 61 3d d5 f6 11 bd 1a e5 1b bd
       0.13989227 0.055148695 -0.035635788 -0.038060285
000070 83 21 13 be 3c 3c 4b 3c f9 1f 33 be 26 0e 5f bd
       -0.14368252 0.012404498 -0.17492665 -0.054456852

cells.2.gate_h.weight f4 [32, 32]
000000 03 c0 b3 3c a2 2b 77 be 11 1c 07 be 4c 1a 4b bd
       0.021942144 -0.24137738 -0.131943 -0.049585626
000010 86 c3 d9 3d 51 39 16 3d ad 28 1c 3d b5 4a e0 bb
       0.10632996 0.036675755 0.03812473 -0.0068448433
000020 b1 2e 40 3e 1d a0 35 bd a7 e2 5b bd ee 39 2e bd
       0.18767811 -0.04434215 -0.05368295 -0.042535715
000030 e7 d9 c8 3d af a2 b1 bd 24 23 21 be ae da d9 3d
       0.098071866 -0.086736076 -0.15736061 0.10637413
000040 f6 3f 8d bd dc f8 57 be 71 98 89 3d 77 cb ce 3c
       -0.06896965 -0.21091026 0.06718529 0.025243504
000050 b2 16 76 3d 4f f7 da bd c8 fd 0a 3c e7 f4 8d bd
       0.060080238 -0.106917016 0.008483358 -0.06931477
000060 10 62 65 bd dc a0 3d 3e fb 55 0e be 6a 07 95 3e
       -0.056001723 0.18518394 -0.13899986 0.2910722
000070 c0 01 0e be 0c ec ca 3d 30 68 b6 bd 19 52 fa 3d
       -0.13867855 0.099083036 -0.08906591 0.1222269
000080 cb 4e 36 3b f8 d1 bf 3d 9c b3 9f bd f4 30 e2 bc
       0.002781796 0.0936622 -0.0779793 -0.027611233
000090 3f 2c 70 3d 06 15 4e bd 0c 07 91 bd 32 ed 72 3d
       0.058635946 -0.05031302 -0.07081422 0.05930824
0000a0 c4 36 00 3e f9 c2 6b 3c 29 c3 b0 3d 69 f1 c2 3c
       0.12520891 0.014389747 0.08630974 0.023796754
0000b0 2d 7d 8e bb 1d 0a 06 3e ce 4d 29 bc c5 12 b9 3c
       -0.004348418 0.13089795 -0.0103334915 0.022591958
0000c0 12 19 f0 bd 1e 39 7b bd 6a 64 ed 3d 91 fd 91 3d
       -0.11723532 -0.061333768 0.11591418 0.07128442
0000d0 78 3b 40 bd 2e 4d 3f bc 0d d1 38 be 39 8f e6 3c
       -0.046931714 -0.011676116 -0.18048497 0.028144466
0000e0 6a 0f 57 3d 56 b4 92 3c 44 14 83 3d d3 51 5d 3d
       0.052504934 0.017908257 0.0640035 0.05403311
0000f0 b1 26 66 3d d7 a7 c1 bd 81 1d 9d bd c1 43 08 3d
       0.056189243 -0.09455841 -0.07671643 0.03326774
000100 ff 60 05 3e cc 9d 6d bc d8 99 da 3d 85 f3 08 be
       0.13025282 -0.014502954 0.106738746 -0.13374145
000110 eb 36 d8 bd d9 b0 93 3d 9b 89 a4 bc 64 c5 93 bd
       -0.1055735 0.072114654 -0.020085147 -0.07215384
000120 c9 c7 5f bd d0 ef 22 be 75 d6 39 be 50 2d 95 3d
       -0.05463389 -0.15911794 -0.18148215 0.07284033
000130 3c 0b 10 bd fe cf f4 3d 2c 2b 18 3d f5 fc ac 3c
       -0.035166964 0.11953734 0.037150547 0.021116713
000140 d1 9a 10 bd a0 28 c2 3d ba b0 70 3d 55 03 0c be
       -0.035303894 0.09480405 0.05876229 -0.13673146
000150 79 a5 0e bc 95 a0 93 3d 30 91 68 3d 8f 9e 92 3d
       -0.008706444 0.07208363 0.056779087 0.07159149
000160 f1 19 32 3c 45 f7 56 bd 10 82 27 3d f5 38 4f bd
       0.010870443 -0.05248191 0.04089552 -0.050591428
000170 4f 6c 12 bd fa 42 8d 3d e3 37 df 3d d2 c3 be 3c
       -0.035747822 0.068975404 0.108993314 0.023286734
000180 d1 2e a0 bd c2 ed c1 3c 82 bc ce bd 80 54 5b 3d
       -0.078214295 0.023672942 -0.10094549 0.053547382
000190 52 19 aa 3d 83 1f 3f 3e a7 a4 12 3e 6a 55 02 3e
       0.08305611 0.18664365 0.14320622 0.12727895
0001a0 de f6 f8 bd ac 98 39 3d 2b 5a a5 3d 5d 09 d8 3c
       -0.12156461 0.045311615 0.08073839 0.026371652
0001b0 39 09 af bd 39 00 10 be 8e 68 98 3d dc 82 c5 bd
       -0.08546681 -0.14062585 0.07441817 -0.096441
0001c0 bf 4d d1 bd 00 d0 0f be 1b 8b 93 bd ff c0 e8 bb
       -0.10219907 -0.1404419 -0.07204267 -0.007103085
0001d0 ce 67 fd 3d a6 49 88 3c 75 73 25 be 1f f4 52 3d
       0.12373315 0.01663668 -0.16157325 0.051502343
0001e0 c2 d9 f8 bd 64 a9 e5 3c ad 3c 11 3e f1 e9 a2 3d
       -0.12150909 0.028034873 0.14183302 0.07954777
0001f0 2d e9 86 bd 13 ce 32 3d 43 2e f9 3d 58 69 6d bd
       -0.065874435 0.04365356 0.12167027 -0.05796179
000200 5d f9 06 bc 8c 02 9c bd e2 4c e5 bd bc 42 d5 3d
       -0.008238164 -0.07617673 -0.11196305 0.10413119
000210 e2 4e 24 bd 17 d9 c4 bc 0c f5 bb 3d 64 ba 23 bd
       -0.04011429 -0.024029298 0.09177598 -0.039972678
000220 97 ec 14 3d bd 42 cc bd 8f a5 06 bc 89 da 1c be
       0.036358442 -0.09973667 -0.008218183 -0.1531774
000230 f6 d7 e4 3d c0 92 c2 bd a6 a8 b3 bd e2 21 b1 bc
       0.11174004 -0.095006466 -0.087724015 -0.021622602
000240 5c f7 90 3d 4c 0d ad bd 73 b3 11 3d 3a 7e 24 3e
       0.0707843 -0.08449802 0.035571527 0.16063777
000250 5f b7 b8 bd 3d eb 38 3e 63 fd 6c 3e 01 b9 84 3d
       -0.0901935 0.18058486 0.23143534 0.06480599
000260 e4 f4 7d bc e0 08 06 bd e1 c6 9a bc d2 02 a7 bd
       -0.015500281 -0.032723308 -0.018893661 -0.08154835
000270 34 86 32 3e 85 b4 14 be 39 72 0b 3d 64 7c 63 3c
       0.17434007 -0.14521988 0.034044478 0.0138846375
000280 a8 37 bb bb ee ff a1 bd 9a 4a d6 bb 70 6d 34 bd
       -0.005713422 -0.07910143 -0.006539655 -0.04404968
000290 e3 32 8d 3d 5a 4f ae bd e1 57 de 3c f9 28 16 be
       0.068944715 -0.08511229 0.027141513 -0.14664067
0002a0 32 28 2f bc dd 5e 45 3b f2 f2 05 be a1 15 e6 3d
       -0.010690736 0.0030116357 -0.13080958 0.11234594
0002b0 f0 bb 26 3b 0e 5d 81 bd 93 03 c7 bd 03 8c c6 bd
       0.002544161 -0.06316577 -0.097174786 -0.09694674
0002c0 80 07 72 3c 9f 8d 8f 3c a0 30 e0 bd 2f 63 89 3c
       0.014772296 0.017523585 -0.109467745 0.016770927
0002d0 12 68 0f be 3a 02 2c 3d e7 91 4c bc 54 bd ac bd
       -0.14004543 0.04199431 -0.012485958 -0.08434549
0002e0 4f 7d 8e 3c 6d d7 c9 bd f7 f0 6e 3d ac 6b cf bd
       0.017393736 -0.09855542 0.05833527 -0.10127959
0002f0 32 f2 24 3d 62 8e fd bd 12 2e 86 3d 14 7f a8 bd
       0.040270038 -0.12380673 0.06551756 -0.08227363
000300 4f a3 08 bd b2 40 17 be b7 59 a3 bd ad 90 eb bc
       -0.03335887 -0.14770773 -0.07976096 -0.02875551
000310 ae 59 be bd bf d2 b7 3d 1b 17 93 3d 39 aa 27 bd
       -0.09294449 0.089757435 0.071821414 -0.04093382
000320 95 5f 57 3d 7c 24 6d bc e8 4e 0f bd b2 e6 47 3d
       0.05258139 -0.014474031 -0.03498736 0.048803993
000330 db 4a 7c bd c6 97 b8 3d 13 5d c5 bd 7f d3 51 3d
       -0.061594825 0.090133235 -0.09636893 0.05122709
000340 35 5d c7 3c f9 39 b0 3b cb a0 ea bd 6f 33 13 be
       0.024336437 0.0053780046 -0.1145645 -0.14375089
000350 7b 2e dc bc 39 a9 61 be 2b 33 19 be d3 9d fc 3c
       -0.026877632 -0.2203721 -0.14960925 0.030836975
000360 47 3f 3d bd 7f 09 08 bb d6 b2 cd bd eb 1e 8a bd
       -0.046202924 -0.0020757613 -0.10043876 -0.067441784
000370 ae 4f 33 bd 69 a0 70 3d 04 ef 25 3e 9f c6 55 3d
       -0.04377716 0.05874673 0.16204458 0.052191373
000380 03 25 3e 3d 29 66 45 bd 1a 17 bc 3d 9c 0b 07 3e
       0.046422016 -0.04819313 0.09184094 0.13188022
000390 e1 dd 04 3e b1 5b f0 bd 6f d7 02 3e 92 0a f6 bd
       0.12975265 -0.11736239 0.12777494 -0.12013735
0003a0 69 cb ba 3c fa b0 92 bd 99 2e 56 bd 30 64 df bc
       0.022802072 -0.07162662 -0.052290533 -0.027269453
0003b0 03 d7 16 3e 9d 37 e0 bd 17 0c 2e 3b aa d9 7a 3d
       0.14730458 -0.109481074 0.00265575 0.061242737
0003c0 70 b5 9d bd 3a bd e5 bd 39 1f 83 bc a8 87 50 3d
       -0.07700622 -0.11217733 -0.016006099 0.050910622
0003d0 5f eb a4 bd 60 cb bd 3d 6d 95 63 bd b2 74 ee 3d
       -0.08052706 0.09267306 -0.055562425 0.116433516
0003e0 2d 38 e5 3c 05 01 ac 3c 8c e3 34 be f4 fc d4 bc
       0.027980888 0.02099658 -0.17664927 -0.025999524
0003f0 a2 af 88 bd 14 f2 dc bd ae 19 c4 bd 87 98 ae bd
       -0.06674124 -0.1078836 -0.095752105 -0.08525186

cells.2.gate_h.bias f4 [32]
000000 38 a9 e9 bc 36 50 de 3d d7 80 4d 3d 7b 16 29 3e
       -0.028523073 0.10855143 0.0501717 0.16512482
000010 b5 d0 8f 3d 3a c4 6c 3d 5d f9 b5 3d 88 82 95 bd
       0.070222296 0.057804324 0.08885453 -0.073002875
000020 57 da f1 3c fb 13 e6 bc b3 e1 96 bd bb c9 33 3e
       0.029523058 -0.0280857 -0.073672675 0.17557423
000030 94 03 de 3d 71 05 91 3d e1 0a a5 3d df 78 15 be
       0.10840526 0.07081116 0.080587156 -0.1459689
000040 30 17 24 be 14 6d 3a 3d 02 a6 8d bd 40 af 1e 3e
       -0.1602447 0.04551418 -0.06916429 0.1549654
000050 cb 7a 89 bd 8f d5 95 bc 4a 95 04 be bb e7 84 bc
       -0.06712874 -0.01829031 -0.12947574 -0.016223779
000060 b7 a3 00 be 60 98 0b 3d 43 27 1f be 8f 54 32 3d
       -0.12562452 0.034080863 -0.15542321 0.043537673
000070 90 50 92 3d ac c0 b3 3d 7e 3c db 3d 84 94 e6 3c
       0.07144272 0.087769836 0.10704897 0.02814699

linear.weight f4 [1, 32]
000000 45 a9 0c 3e 57 e4 f4 3d fa ab 53 bc 70 77 4c 3d
       0.13736446 0.11957615 -0.01291942 0.049918592
000010 6a 98 36 bd 33 68 81 bd c2 d8 81 3d 45 cd fd bb
       -0.044578947 -0.063187025 0.063401714 -0.0077454173
000020 ee 6e 48 bd d2 5e 46 bc d4 53 21 be 3d 28 01 3e
       -0.048933916 -0.012107568 -0.15754634 0.12613006
000030 e8 d8 cc 3d 12 ad f1 3c 65 61 62 3d 57 23 df 3d
       0.10002309 0.029501472 0.055268664 0.108954124
000040 4f 9f 71 3c 01 a6 96 3d 70 dc e2 bc a8 c7 8e 3c
       0.014747455 0.073558815 -0.027693003 0.017429188
000050 8b 7c 90 bd 3c e8 bc 3d 26 4d d1 3d 95 c5 9b bc
       -0.07055005 0.09223983 0.10219793 -0.019015113
000060 e7 71 3c 3d d4 99 09 be 2c 13 dc bc 7d 49 8d bd
       0.046007063 -0.13437587 -0.02686461 -0.068987824
000070 79 21 0f 3d 8b 9e 76 bd 4f 40 67 bd a2 b7 cb bd
       0.03494403 -0.060209792 -0.056457814 -0.099471346
