SRNN/gridsearch/srnn_m/model_state_dict.pt (torch, 12719 bytes, 19 tensors)

cells.0.gate_i.weight f4 [16, 1]
-0.5589964 -0.12260382 -0.27821416 -0.7189687 -0.23040885 0.1531271 0.055649355 -0.16102165
-0.11013874 -0.46838358 0.65945005 0.38683683 0.11620234 -0.63509476 0.24610521 -0.16777596
00000000: 631a 0fbf b617 fbbd 1672 8ebe 550e 38bf
00000010: 4cf0 6bbe 5acd 1c3e 94f0 633d dce2 24be
00000020: 6b90 e1bd f9cf efbe b8d1 283f 7a0f c63e
00000030: 7efb ed3d 9295 22bf 0103 7c3e 76cd 2bbe

cells.0.gate_i.bias f4 [16]
0.400205 -0.71347237 -0.32549697 0.5444338 0.16710556 -0.4299247 0.12668774 0.18994904
-0.31338066 -0.56079084 -0.34155434 0.05741554 -0.74922115 0.52759033 -0.31248876 -0.4624903
00000000: abe7 cc3e 20a6 36bf 8aa7 a6be 0360 0b3f
00000010: b81d 2b3e 171f dcbe 6eba 013e 0082 423e
00000020: 6e73 a0be fd8f 0fbf 36e0 aebe 8f2c 6b3d
00000030: f5cc 3fbf 2910 073f 87fe 9fbe 87cb ecbe

cells.0.gate_s.weight f4 [16, 1]
0.11348621 0.42139778 0.17501181 -0.66374266 0.6430018 -0.042111177 0.05868328 -0.096019685
-0.1868781 -0.87886083 0.055609837 -0.6456878 0.31239924 -0.92843807 0.13434568 -0.17866747
00000000: 756b e83d 73c1 d73e 4c36 333e 0aeb 29bf
00000010: c49b 243f c57c 2cbd e15d 703d f8a5 c4bd
00000020: f95c 3fbe 06fd 60bf 24c7 633d cc4b 25bf
00000030: cbf2 9f3e 1eae 6dbf ea91 093e 9bf4 36be

cells.0.gate_s.bias f4 [16]
-0.31566212 0.39568797 -0.5056906 0.206121 -0.5469904 0.005588476 -0.37153336 0.08354197
-0.22200382 0.4259664 0.08712047 0.050606743 0.64986247 -0.13992198 -0.3080861 0.38514927
00000000: 779e a1be 9d97 ca3e f074 01bf 6211 533e
00000010: 9007 0cbf 891f b73b 9f39 bebe 0d18 ab3d
00000020: f854 63be 4518 da3e 386c b23d 0449 4f3d
00000030: 635d 263f b547 0fbe 76bd 9dbe 4932 c53e

cells.0.gate_h.weight f4 [16, 16]
0.524226 -0.020946452 -0.06350115 -0.16384868 -0.13053955 0.21086803 0.08671269 0.12513505
-0.13535967 -0.3287908 -0.09138296 -0.24524955 -0.19040671 -0.11344619 -0.06528729 -0.074284725
-0.0458917 -0.20223743 -0.22304602 0.11961735 0.016262373 -0.0056800516 -0.10860194 0.08754941
-0.16190873 0.08267748 -0.04337888 0.017363515 -0.077972434 0.09587541 -0.16053382 -0.13386352
-0.011307789 -0.061912403 0.059808392 -0.10647686 0.060572874 -0.013847837 0.15585256 -0.024103375
0.090138085 0.16942611 0.043962073 -0.094628416 -0.033248752 -0.059594262 0.1114792 0.115078166
0.19907477 -0.011792333 0.09144361 -0.22062464 -0.016358096 0.014435723 -0.17812485 0.09037669
-0.17725112 -0.17616472 -0.05685513 -0.060586173 -0.06820759 0.017131984 0.16363558 -0.06574385
-0.25666672 -0.051523205 0.12500489 -0.09574158 0.036377817 -0.12666252 0.13325864 -0.080080286
0.1219505 0.072389446 0.11290757 0.086569734 0.15792097 0.053551044 -0.21391426 0.07475957
0.07728611 -0.026778596 -0.10352834 0.004903077 -0.23619421 -0.08708086 -0.13564248 0.077798754
-0.1618622 -0.12601075 -0.023001548 0.07862054 -0.06161048 0.012733322 -0.053136077 0.026775565
-0.17934743 -0.025112491 -0.053960234 -0.11784244 -0.037300546 -0.03130113 -0.018533621 -0.0069934884
0.20238881 0.025941407 0.0028609312 -0.043690972 0.023970919 -0.12842108 -0.08281714 -0.06584864
0.085292675 -0.013893487 -0.018722253 -0.05151383 0.017795304 0.019627433 0.01059026 -0.032666925
-0.034962524 -0.1243812 -0.046465483 0.0024011466 -0.028745567 -0.035025407 0.118552715 -0.0017021219
-0.36490926 -0.04534501 -0.25479573 -0.06767532 -0.09378899 -0.11881259 -0.23863186 0.03798247
0.0056661153 0.17699866 0.04852066 -0.108704984 0.078016125 -0.06853782 -0.17835051 0.06507057
0.0118546365 0.0085732145 -0.28367403 0.2446596 -0.1615679 0.08717606 -0.15882386 0.0456407
0.081091516 0.17065117 -0.1796099 -0.16675135 -0.06879336 0.30043966 -0.032675095 -0.009685588
-0.08757438 0.08218514 -0.16122474 0.06914163 -0.25604075 -0.15394145 0.19051984 0.20909818
0.1970007 0.18428515 -0.04594092 0.32410985 -0.006564731 0.03635023 0.06282781 -0.2524026
-0.04651558 -0.09303526 0.043572288 -0.011875849 0.13498923 -0.03820517 -0.02017075 0.08984211
-0.08705678 0.046903215 -0.10844098 -0.333085 0.04912802 -0.09462833 -0.13701983 -0.037588112
-0.15152866 -0.10919493 0.11812983 -0.15799204 0.188148 0.013845052 -0.10730039 0.048582938
0.082449734 0.18487602 0.030176496 -0.024887366 0.064848036 0.15987435 -0.03184277 0.06542248
0.2741434 -0.27304348 0.04260428 0.009745268 -0.13106437 -0.1120473 -0.20126477 0.100780785
-0.28941566 -0.07435617 0.10337529 -0.12810832 -0.14695036 -0.15237303 -0.031152992 0.17875148
0.16217391 0.07265319 0.0063975006 0.17138867 -0.08864427 -0.016598286 -0.20938458 0.047749333
0.0022162131 0.03174455 -0.08261807 0.40008923 -0.013424463 0.2861452 -0.34117076 -0.1083008
-0.0123604145 0.11189607 0.0114742685 0.0043467334 -0.15309666 0.05391077 -0.0638402 -0.02371885
-0.20203829 -0.07962105 0.027044661 0.030648781 -0.0046057655 0.0047186273 0.04955791 -0.13507989
00000000: ad33 063f e597 abbc e40c 82bd f3c7 27be
00000010: 29ac 05be caed 573e 6c96 b13d 6723 003e
00000020: ba9b 0abe 4557 a8be fd26 bbbd b322 7bbe
00000030: faf9 42be 7a56 e8bd 58b5 85bd 9722 98bd
00000040: eff8 3bbd 5417 4fbe 2d66 64be f1f9 f43d
00000050: ab38 853c ba1f babb b26a debd 1b4d b33d
00000060: 67cb 25be d052 a93d 0dae 31bd ee3d 8e3c
00000070: 03b0 9fbd 545a c43d fa62 24be 8513 09be
00000080: 4e44 39bc dc97 7dbd a5f9 743d 8a10 dabd
00000090: 431b 783d 0ae2 62bc d097 1f3e 7174 c5bc
000000a0: 519a b83d 0a7e 2d3e 9311 343d 8bcc c1bd
000000b0: d82f 08bd 1d19 74bd 354f e43d 1aae eb3d
000000c0: 42da 4b3e a134 41bc ca46 bb3d 6deb 61be
000000d0: 6a01 86bc d083 6c3c 5c66 36be 6a17 b93d
000000e0: 5181 35be 8664 34be ede0 68bd 3529 78bd
000000f0: 6cb0 8bbd 6058 8c3c 1690 273e b6a4 86bd
00000100: d269 83be ff09 53bd 4801 003e 2914 c4bd
00000110: e800 153d d2b3 01be f474 083e 2201 a4bd
00000120: 2fc1 f93d eb40 943d 163c e73d 794b b13d
00000130: 09b6 213e 5758 5b3d 570c 5bbe 8c1b 993d
00000140: 2e48 9e3d c95e dbbc ab06 d4bd fea9 a03b
00000150: e5dc 71be 7357 b2bd dde5 0abe f454 9f3d
00000160: 34bf 25be f608 01be be6d bcbc ce03 a13d
00000170: 455b 7cbd 6c9f 503c 37a5 59bd 6e58 db3c
00000180: daa6 37be b6b8 cdbc 6805 5dbd 6157 f1bd
00000190: 75c8 18bd 9d35 00bd d2d3 97bc a229 e5bb
000001a0: 033f 4f3e 1383 d43c 767e 3b3b 4ef5 32bd
000001b0: a95e c43c d180 03be 089c a9bd a7db 86bd
000001c0: edad ae3d 82a1 63bc 695f 99bc 2a00 53bd
000001d0: 75c7 913c b6c9 a03c c582 2d3c c1cd 05bd
000001e0: dd34 0fbd 92bb febd 9752 3ebd 8e5c 1d3b
000001f0: d37b ebbc cd76 0fbd c4cb f23d bc19 dfba
00000200: 63d5 babe b0bb 39bd 9674 82be 5c99 8abd
00000210: 7114 c0bd 0454 f3bd e95b 74be 8293 1b3d
00000220: d2aa b93b 233f 353e 99bd 463d b8a0 debd
00000230: ebc6 9f3d 8e5d 8cbd 84a1 36be b843 853d
00000240: f339 423c ab76 0c3c b93d 91be 0c88 7a3e
00000250: 0e72 25be 5d89 b23d b9a2 22be bef1 3a3d
00000260: 4f13 a63d 2ebf 2e3e a8eb 37be dec0 2abe
00000270: 88e3 8cbd 3ad3 993e 52d6 05bd 4db0 1ebc
00000280: 325a b3bd af50 a83d 1918 25be 209a 8d3d
00000290: c617 83be d4a2 1dbe a217 433e d51d 563e
000002a0: 8dba 493e 3fb5 3c3e 8c2c 3cbd baf1 a53e
000002b0: f41c d7bb fbe3 143d deab 803d ea3a 81be
000002c0: 1f87 3ebd 4589 bebd db78 323d ec92 42bc
000002d0: 9e3a 0a3e 067d 1cbd 213d a5bc 24ff b73d
000002e0: d34a b2bd 961d 403d 4e16 debd 1e8a aabe
000002f0: 763a 493d 7fcc c1bd ed4e 0cbe fef5 19bd
00000300: 542a 1bbe 97a1 dfbd 0dee f13d aac8 21be
00000310: dfa9 403e 5bd6 623c 4fc0 dbbd e7fe 463d
00000320: 68db a83d 2450 3d3e b334 f73c 97e0 cbbc
00000330: 0ccf 843d 1ab6 233e 906d 02bd 39fc 853d
00000340: 865c 8c3e 5bcc 8bbe d381 2e3d 9eaa 1f3c
00000350: bd35 06be 0e79 e5bd 5a18 4ebe 2866 ce3d
00000360: 4a2e 94be 0c48 98bd 6db6 d33d d42e 03be
00000370: 287a 16be ad07 1cbe 8f34 ffbc a10a 373e
00000380: eb10 263e 32cb 943d 20a2 d13b 8380 2f3e
00000390: 218b b5bd 21f9 87bc e968 56be ce94 433d
000003a0: e33d 113b 9306 023d aa33 a9bd 7fd8 cc3e
000003b0: 47f2 5bbc a081 923e efad aebe cfcc ddbd
000003c0: 5683 4abc c429 e53d 92fe 3b3c 0b6f 8e3b
000003d0: 5fc5 1cbe 8ad1 5c3d a7be 82bd 094e c2bc
000003e0: 20e3 4ebe 5c10 a3bd c48c dd3c 2713 fb3c
000003f0: f6eb 96bb b79e 9a3b 3cfd 4a3d 6252 0abe

cells.0.gate_h.bias f4 [16]
-0.014888422 -0.08379718 -0.16888301 -0.13193683 0.11426956 0.22365691 0.059852034 -0.11462472
0.25495693 0.27513573 -0.10146536 -0.01739194 0.06522593 0.011379648 -0.030377813 0.19075072
00000000: 91ee 73bc db9d abbd abef 2cbe 731a 07be
00000010: 2906 ea3d 5106 653e 6827 753d 5dc0 eabd
00000020: b789 823e 97de 8c3e 12cd cfbd 8b79 8ebc
00000030: 2c95 853d b471 3a3c e4da f8bc 2854 433e

cells.1.gate_i.weight f4 [16, 16]
-0.0328892 -0.13295142 -0.060828388 -0.043636844 -0.17284368 0.089565575 0.11527345 0.044077367
0.046609502 0.032554112 -0.03245031 0.03087803 0.003106012 0.010222093 0.033960547 0.11515592
0.053324107 0.059918154 -0.18209198 0.008977872 -0.09198225 0.13441285 -0.14491832 0.03802274
-0.043969948 0.08599092 0.07122293 -0.07060224 -0.036704935 0.047979027 -0.2518548 -0.052137673
0.06251591 0.19529171 -0.080737405 0.04001274 0.11435736 0.07067975 -0.14487742 -0.1154865
-0.01178058 0.11515909 0.09405611 -0.0084259305 0.048239622 -0.045865856 -0.15580033 0.0320384
-0.030471945 0.023012925 0.104607746 0.015136443 -0.04569215 0.01105628 0.07674875 0.0147186825
-0.01958122 0.015601443 0.055315807 -0.09292827 -0.03958851 0.11222354 0.008334134 0.0007405673
0.02023515 -0.11749231 -0.025421128 0.05691597 -0.004308986 0.07893979 0.10757194 0.06917744
-0.13554932 -0.26182824 0.09593255 -0.024231076 -0.118136354 0.018915474 -0.12149443 -0.034294426
0.15212618 0.0638677 0.030666854 0.0778311 0.10828973 0.056714762 0.024219032 -0.13097586
0.102978945 -0.121497266 -0.017484553 0.09469642 0.076318085 -0.20734195 -0.077959985 0.03397622
-0.036583852 -0.051993195 0.040069435 0.043288264 0.07406019 -0.011595374 -0.11430267 0.0838247
-0.16306435 0.1294803 -0.016606906 -0.015327887 0.08042516 -0.15035802 -0.029441204 -0.067250416
0.033456016 0.024569044 0.028219821 -0.15180786 -0.024064891 0.061057217 0.15685986 -0.02429863
-0.14322422 -0.10850376 -0.025106784 0.020253075 0.02598298 -0.011980042 -0.02568575 0.030042084
0.034554042 0.15388821 -0.10242491 0.019856827 -0.07665147 0.06632579 0.0671852 0.10324867
0.019276185 0.24129969 -0.08412167 0.069614634 0.05626538 -0.004762933 0.11783396 0.023257298
0.040935732 -0.036823757 0.11321303 -0.17274745 0.09652747 0.0149465995 -0.000873258 -0.12193058
0.07726103 -0.3242394 0.00253172 -0.024336722 -0.026821611 -0.16534768 -0.060988255 -0.032540478
-0.1150493 0.10019136 -0.16547824 -0.04115713 -0.19314587 0.20297569 -0.21970905 0.0081779845
0.17403679 -0.0988253 -0.05313424 0.18613964 0.13768624 0.02397163 0.095898345 -0.15564787
-0.1823867 -0.16479068 0.10174898 -0.028148288 0.111631915 0.0047416934 0.18400648 0.05373925
-0.15207611 0.06624161 -0.06893288 -0.09405344 0.0076974942 0.11709912 0.09218838 -0.08643561
-0.0012437374 -0.12365682 0.21920997 -0.18624654 0.015423281 0.0044914745 0.08385097 -0.045299497
0.0057405955 -0.023020377 0.0072140163 0.097812735 -0.14810382 -0.1332697 -0.033597287 0.04453147
-0.006935564 -0.015546945 -0.30921265 0.033773202 -0.21407808 0.03558455 -0.0024122025 -0.019046396
0.11882964 0.07995145 0.0062509445 0.14424033 0.094004676 -0.046685696 0.09125226 0.032203544
0.078260355 -0.0083016325 -0.17712758 -0.04089271 0.066042565 0.039957896 -0.13971902 0.07678012
-0.1898405 -0.3718985 -0.026809802 -0.1384251 0.026833061 -0.19151798 0.09187152 0.026370948
0.1384344 -0.06230799 -0.22969688 -0.1799783 -0.20346898 0.15989561 -0.0158698 -0.035397764
-0.015848486 -0.29446107 -0.035765234 -0.04991581 -0.025057515 -0.13338572 -0.24249049 0.043923307
00000000: d3b6 06bd 6b24 08be 3027 79bd 8cbc 32bd
00000010: effd 30be 286e b73d 7d14 ec3d 788a 343d
00000020: 9be9 3e3d 7657 053d 9eea 04bd ecf3 fc3c
00000030: 3c8e 4b3b 917a 273c 371a 0b3d ded6 eb3d
00000040: 616a 5a3d bd6c 753d 5276 3abe ed17 133c
00000050: 3161 bcbd 86a3 093e 7865 14be bcbd 1b3d
00000060: d519 34bd 021c b03d 54dd 913d e897 90bd
00000070: ea57 16bd a885 443d 1df3 80be 508e 55bd
00000080: 5708 803d 8dfa 473e a759 a5bd 66e4 233d
00000090: 3134 ea3d 8bc0 903d bf5a 14be 3084 ecbd
000000a0: 5503 41bc 87d8 eb3d 7da0 c03d ea0c 0abc
000000b0: e996 453d d6dd 3bbd 1f8a 1fbe b33a 033d
000000c0: 4da0 f9bc 9a85 bc3c 963c d63d d8fe 773c
000000d0: b127 3bbd 6625 353c 732e 9d3d a126 713c
000000e0: cb68 a0bc 329d 7f3c d492 623d 2d51 bebd
000000f0: 9027 22bd 75d5 e53d e48b 083c a122 423a
00000100: 2fc4 a53c cf9f f0bd f83f d0bc b820 693d
00000110: 6532 8dbb 2fab a13d ad4e dc3d e7ac 8d3d
00000120: 71cd 0abe 5a0e 86be 4978 c43d 4080 c6bc
00000130: 79f1 f1bd a0f4 9a3c 12d2 f8bd 5078 0cbd
00000140: f7c6 1b3e 12cd 823d 0e39 fb3c e965 9f3d
00000150: 02c7 dd3d bd4d 683d fe66 c63c 891e 06be
00000160: a0e6 d23d 8fd3 f8bd c43b 8fbc 32f0 c13d
00000170: a84c 9c3d 7351 54be 7ca9 9fbd a62a 0b3d
00000180: f3d8 15bd d1f6 54bd d91f 243d 094f 313d
00000190: deac 973d 86fa 3dbc 8517 eabd 49ac ab3d
000001a0: 57fa 26be 7c96 043e 350b 88bc d121 7bbc
000001b0: f2b5 a43d 74f7 19be ae2e f1bc 96ba 89bd
000001c0: 2d09 093d 0545 c93c 412d e73c 8573 1bbe
000001d0: bc23 c5bc 2217 7a3d df9f 203e ec0d c7bc
000001e0: 5fa9 12be 3837 debd beac cdbc c7e9 a53c
000001f0: 42da d43c f047 44bc ec6a d2bc d11a f63c
00000200: 8a88 0d3d df94 1d3e 27c4 d1bd c9aa a23c
00000210: 72fb 9cbd d1d5 873d 6598 893d 0a74 d33d
00000220: 17e9 9d3c 4417 773e fb47 acbd 1e92 8e3d
00000230: 8776 663d 6112 9cbb ee52 f13d 1786 be3c
00000240: 3aac 273d 82d4 16bd 3cdc e73d b5e4 30be
00000250: 32b0 c53d 95e2 743c 5aeb 64ba bdb6 f9bd
00000260: 083b 9e3d b502 a6be 37eb 253b ce5d c7bc
00000270: ffb8 dbbc e750 29be d2ce 79bd 2a49 05bd
00000280: f89e ebbd 2131 cd3d 2173 29be 6194 28bd
00000290: 08c8 45be dcd8 4f3e 69fb 60be f4fc 053c
000002a0: b336 323e eb64 cabd 4aa3 59bd 649b 3e3e
000002b0: 9ffd 0c3e 2760 c43c 5a66 c43d 2862 1fbe
000002c0: 94c3 3abe e3be 28be c561 d03d 3d97 e6bc
000002d0: 469f e43d 3560 9b3b 326c 3c3e b01d 5c3d
000002e0: d7b9 1bbe aea9 873d af2c 8dbd 179f c0bd
000002f0: 433b fc3b aad1 ef3d 43cd bc3d 2705 b1bd
00000300: e704 a3ba c93f fdbd 9478 603e 6ab7 3ebe
00000310: eeb1 7c3c 382d 933b 0fba ab3d f78b 39bd
00000320: 9b1b bc3b 3b95 bcbc 8e63 ec3b 0b52 c83d
00000330: 87a8 17be da77 08be 4f9d 09bd a166 363d
00000340: ba43 e3bb 9db8 7ebc 1f51 9ebe c555 0a3d
00000350: 4937 5bbe 1bc1 113d 0b16 1ebb 3007 9cbc
00000360: f45c f33d 96bd a33d b9d4 cc3b bdb3 133e
00000370: 8685 c03d 8039 3fbd 77e2 ba3d dde7 033d
00000380: f746 a03d 9203 08bc ef60 35be 1d7f 27bd
00000390: 5341 873d e4aa 233d 8112 0fbe e53e 9d3d
000003a0: 8c65 42be 7b69 bebe 3ba0 dbbc 4fbf 0dbe
000003b0: 02d1 db3c 4a1d 44be 2327 bc3d e307 d83c
000003c0: bfc1 0d3e aa36 7fbd a935 6bbe 3b4c 38be
000003d0: 2c5a 50be adbb 233e 6201 82bc 3ffd 10bd
000003e0: afd4 81bc 9ac3 96be 917e 12bd 8574 4cbd
000003f0: 6b45 cdbc 4496 08be 6d4f 78be ede8 333d

cells.1.gate_i.bias f4 [16]
0.20095813 0.1383313 0.07066782 -0.015841695 -0.23139086 -0.20358662 -0.1953524 -0.0838623
-0.014738667 0.11043805 0.12889796 -0.055665422 -0.19902487 0.030486558 0.17814246 0.1349273
00000000: f8c7 4d3e b8a6 0d3e 4aba 903d 71c6 81bc
00000010: baf1 6cbe 0379 50be 760a 48be ffbf abbd
00000020: 737a 71bc 582d e23d d4fd 033e 6d01 64bd
00000030: 2dcd 4bbe f2be f93c fa6a 363e 622a 0a3e

cells.1.gate_s.weight f4 [16, 1]
0.54847634 -0.4547994 -1.4149581 -0.7841688 0.9839127 0.14245982 0.36081913 -0.030388411
-0.34436083 0.12760183 0.19727992 -1.3128848 -1.0386429 -1.1515001 1.9245703 0.5259722
00000000: f268 0c3f 78db e8be 591d b5bf 49bf 48bf
00000010: b4e1 7b3f fde0 113e 49bd b83e 1ef1 f8bc
00000020: 1050 b0be 0eaa 023e bf03 4a3e 9c0c a8bf
00000030: 40f2 84bf 5b64 93bf 5258 f63f 1da6 063f

cells.1.gate_s.bias f4 [16]
-0.4365068 -0.5139959 0.010422576 0.1426594 -0.1432669 0.27201036 0.19876313 0.3335349
-0.02998028 -0.06228762 -0.5674431 0.5806574 0.6885494 -0.38018072 -0.71301115 -0.5349017
00000000: d27d dfbe 3c95 03bf 74c3 2a3c 4e15 123e
00000010: 8fb4 12be f144 8b3e 9088 4b3e 16c5 aa3e
00000020: 3499 f5bc 4e21 7fbd f343 11bf f7a5 143f
00000030: c644 303f 0ca7 c2be e687 36bf 51ef 08bf

cells.1.gate_h.weight f4 [16, 16]
-0.09096916 0.15083393 0.096882716 -0.07055104 -0.018565508 -0.008008108 0.006495474 0.10936209
0.103277944 -0.0017413881 0.045382265 0.095113955 0.067079864 0.06340271 -0.12856854 0.06481839
-0.1975112 -0.09412079 -0.014172668 -0.434142 0.1942965 0.25134322 -0.0011477967 0.07548519
0.013331242 -0.08481215 0.011703353 -0.089099556 0.013440113 -0.26412663 -0.05963686 -0.055444885
-0.120972544 0.03281415 -0.28717464 0.116378516 0.24497153 0.16726488 -0.004905121 0.039863892
-0.04364841 0.04425617 -0.11377102 -0.08411083 -0.114386976 -0.2251134 0.0020504578 -0.058049317
-0.090885684 -0.37330672 -0.35252428 0.4549867 0.08067488 0.2873103 0.02870079 -0.14647342
-0.11715694 -0.22822008 0.03672958 -0.31297615 -0.12957813 -0.08259198 0.51619226 0.4432388
-0.13222314 -0.023653915 0.023918109 -0.34762692 0.0627436 -0.0917585 -0.0726519 0.073603354
0.043246377 0.048188508 -0.15967971 -0.22537397 -0.037431944 0.12897213 -0.072167315 -0.12720475
-0.16179372 -0.13235728 -0.14912188 0.07348953 0.11355225 0.055875078 0.022174038 0.025690783
0.009206963 -0.010707254 0.10123218 0.12685062 0.083949015 0.0048228214 -0.12839574 -0.065090254
0.0015991845 0.019585975 -0.019665519 -0.090493895 -0.10303155 0.091178946 -0.13600712 -0.029396314
-0.10316935 -0.043130707 -0.08065214 -0.060115263 -0.1904382 -0.07402329 0.1518533 -0.11877696
0.0187345 -0.11455407 -0.0747297 -0.2749427 0.026215982 -0.0677123 0.02330949 -0.16622831
0.0040632365 0.07177584 -0.0047131237 -0.070918895 -0.0018603647 -0.12475063 0.093659654 -0.09623829
0.037322372 0.12992503 -0.23507692 -0.18592374 -0.15391307 0.13384925 0.10138279 0.0056951772
-0.106009535 -0.24440487 0.19109035 -0.036628585 -0.02947469 0.014271426 0.26989967 -0.03485475
0.14234728 0.04934725 -0.1842896 -0.45726952 0.15609263 -0.17301732 0.015598107 -0.13223834
-0.0038669326 -0.22715174 -0.074874975 -0.14482188 -0.124574415 -0.22908132 -0.11666251 -0.08882175
-0.1431354 0.106692575 0.17342223 0.16798416 0.18981653 0.085541226 0.20259756 0.096826516
-0.08174881 0.2790467 0.06949845 0.061273355 0.22623509 -0.16923922 -0.20677389 0.0745582
-0.13523807 -0.033410136 0.049911596 0.08736573 -0.009513566 -0.12661403 -0.059963837 -0.16143613
0.10505179 -0.063718624 -0.14191213 -0.3398875 -0.21747285 -0.14683513 0.32727355 0.082976714
0.010819369 0.0040068435 -0.26359442 0.1801661 0.104083724 -0.121579655 0.16240463 0.02552765
0.038170192 0.08628404 0.061490208 -0.07589642 -0.24043158 0.16794664 0.022330705 -0.0049068695
0.21134837 -0.1306846 -0.46509486 0.103615694 0.05132359 -0.045418277 -0.07773618 0.30655643
-0.24305204 -0.12888595 0.056940038 -0.41469383 -0.057836004 -0.20178796 0.11538129 0.008983102
0.0016226271 0.16628632 0.07834533 0.04954254 0.09847841 -0.004017306 -0.021500353 -0.011478638
-0.13440949 0.25114858 0.10830279 -0.17911845 0.07269534 0.053422432 0.070770405 -0.15736459
-0.13318725 0.055584457 0.0628519 0.32919267 -0.032916863 -0.0634932 0.0943765 0.04107585
-0.12090357 0.005956351 0.031029962 0.037785918 -0.059940673 -0.060250886 0.19589421 0.07523594
00000000: 0a4e babd 3674 1a3e 726a c63d 107d 90bd
00000010: b116 98bc 7034 03bc fcd7 d43b 3bf9 df3d
00000020: 6383 d33d 4a3f e4ba c1e2 393d 1bcb c23d
00000030: 2b61 893d 48d9 813d 79a7 03be 81bf 843d
00000040: 6040 4abe 67c2 c0bd 7a34 68bc dc47 debe
00000050: a9f5 463e 0fb0 803e ab71 96ba fb97 9a3d
00000060: 486b 5a3c feb1 adbd 6cbf 3f3c d479 b6bd
00000070: eb33 5c3c 9b3b 87be c845 74bd 2d1a 63bd
00000080: 74c0 f7bd 2168 063d 8e08 93be dc57 ee3d
00000090: d1d9 7a3e 7c47 2b3e 23bb a0bb 5248 233d
000000a0: adc8 32bd f545 353d c800 e9bd 4d42 acbd
000000b0: b843 eabd 2184 66be f960 063b 1fc5 6dbd
000000c0: 4622 babd 0f22 bfbe 107e b4be 04f4 e83e
000000d0: df38 a53d 561a 933e eb1d eb3c 21fd 15be
000000e0: faef efbd 86b2 69be c271 163d 693e a0be
000000f0: 21b0 04be fc25 a9bd 2d25 043f 32f0 e23e
00000100: 8165 07be dbc5 c1bc e9ef c33c 28fc b1be
00000110: b77f 803d e1eb bbbd 85ca 94bd 5bbd 963d
00000120: 1d23 313d 5061 453d 1483 23be 6fc8 66be
00000130: 3d52 19bd 4511 043e 75cc 93bd f641 02be
00000140: 41ad 25be ab88 07be 68b3 18be ae81 963d
00000150: 158e e83d 44dd 643d 54a6 b53c 7a75 d23c
00000160: cdd8 163c 7a6d 2fbc d152 cf3d 21e5 013e
00000170: 76ed ab3d c208 9e3b 2c7a 03be 0a4e 85bd
00000180: ba9b d13a c472 a03c 9519 a1bc dd54 b9bd
00000190: 3502 d3bd 07bc ba3d 7345 0bbe 8ad0 f0bc
000001a0: 744a d3bd d3a9 30bd f32c a5bd 6c3b 76bd
000001b0: 3b02 43be 8699 97bd 6e7f 1b3e 5641 f3bd
000001c0: 1879 993c 539b eabd e30b 99bd 4ac5 8cbe
000001d0: e6c2 d63c bfac 8abd 8bf3 be3c c137 2abe
000001e0: e624 853b 36ff 923d 8c70 9abb ed3d 91bd
000001f0: 7bd7 f3ba 427d ffbd a2d0 bf3d 9518 c5bd
00000200: 58df 183d 110b 053e 01b8 70be cb62 3ebe
00000210: 639b 1dbe c70f 093e c8a1 cf3d 9c9e ba3b
00000220: 871b d9bd 4545 7abe 30ad 433e db07 16bd
00000230: e874 f1bc b3d2 693c 4a30 8a3e dbc3 0ebd
00000240: 7cc3 113e 5820 4a3d 6ab6 3cbe 3b1f eabe
00000250: bfd6 1f3e 742b 31be 348f 7f3c 7d69 07be
00000260: 5d6c 7dbb 779a 68be 0d58 99bd 304c 14be
00000270: df20 ffbd 4b94 6abe c1ec eebd 2de8 b5bd
00000280: 1692 12be a381 da3d 9995 313e 0a04 2c3e
00000290: 445f 423e 3d30 af3d bc75 4f3e fb4c c63d
000002a0: ec6b a7bd 36df 8e3e 3455 8e3d c5f9 7a3d
000002b0: 2caa 673e 0c4d 2dbe 89bc 53be f8b1 983d
000002c0: d97b 0abe 11d9 08bd 1a70 4c3d ceec b23d
000002d0: cade 1bbc 1ca7 01be a49c 75bd 834f 25be
000002e0: 6525 d73d e97e 82bd 6a51 11be bc05 aebe
000002f0: 34b1 5ebe f35b 16be 6690 a73e b2ef a93d
00000300: b943 313c d74b 833b d9f5 86be 767d 383e
00000310: d929 d53d c1fe f8bd 664d 263e 5d1f d13c
00000320: 5958 1c3d b0b5 b03d 28dd 7b3d 956f 9bbd
00000330: b233 76be 34fa 2b3e e2ee b63c cec9 a0bb
00000340: b56b 583e 2fd2 05be ea20 eebe 7734 d43d
00000350: af38 523d 8408 3abd 2534 9fbd f7f4 9c3e
00000360: a2e2 78be aefa 03be f539 693d c052 d4be
00000370: 72e5 6cbd 81a1 4ebe 074d ec3d dc2d 133c
00000380: 55ae d43a f646 2a3e 8473 a03d 1eed 4a3d
00000390: 0caf c93d 9ba3 83bb 8221 b0bc e610 3cbc
000003a0: a4a2 09be 8c96 803e dacd dd3d d46a 37be
000003b0: 4be1 943d 7bd1 5a3d 13f0 903d 2f24 21be
000003c0: 3d62 08be 87ac 633d 7fb8 803d f18b a83e
000003d0: d5d3 06bd b908 82bd 7748 c13d 273f 283d
000003e0: 4a9c f7bd 7e2d c33b 8c32 fe3c 68c5 1a3d
000003f0: 5a84 75bd a2c9 76bd 7e98 483e 4d15 9a3d

cells.1.gate_h.bias f4 [16]
-0.018449845 -0.0039026355 0.15287364 0.03368238 -0.093786985 -0.07099304 -0.11555945 -0.025400447
-0.037285756 -0.16018984 0.24028127 0.11515576 0.12945075 0.098790005 -0.17133518 0.12069771
00000000: 2124 97bc 5cc3 7fbb e88a 1c3e 89f6 093d
00000010: 6413 c0bd cd64 91bd 6faa ecbd 9914 d0bc
00000020: f3b8 18bd ce08 24be 4b0c 763e c8d6 eb3d
00000030: bd8e 043e 6a52 ca3d 7d72 2fbe 5c30 f73d

cells.2.gate_i.weight f4 [16, 16]
-0.07911487 -0.04139669 -0.11185753 0.0083159385 0.12198537 0.06742821 -0.15748593 0.012517881
-0.07467709 0.15843222 0.14521833 -0.01958032 0.06315225 -0.028267087 -0.013688241 -0.13270773
0.021774327 -0.04140661 -0.05601828 0.0041504055 0.028042795 0.038604278 0.025494399 0.0401877
-0.0668529 0.060604054 0.070034795 -0.0898263 0.049891036 -0.13204502 -0.028093683 0.04420272
-0.07011189 0.023061683 0.02050366 0.29766718 -0.043270316 0.03987264 0.113247 0.27732673
-0.132511 -0.10604415 0.030477576 0.10850885 0.09354907 0.07434654 -0.057178274 -0.11858198
0.06698088 0.069944285 -0.021473493 -0.037053216 0.028095974 -0.017527694 0.0047226916 -0.20314378
0.06932348 -0.00023902406 -0.06216452 0.0018830443 -0.03573925 0.047030073 -0.03197466 -0.052909497
-0.2065617 0.08375623 -0.022888498 -0.010915859 -0.02535704 -0.034747742 0.10657817 -0.021545578
-0.102548674 0.05868881 -0.002403434 0.08197906 0.03770491 -0.07751037 -0.13233405 -0.058164265
0.01226573 0.007945224 0.08015303 0.21395555 -0.04099985 2.716418e-05 -0.026948987 -0.01580045
0.02166114 -0.06213121 0.023021916 0.038188506 0.008161977 0.07226601 -0.116178624 -0.0146866115
0.12544064 0.02019426 -0.029218836 0.15906197 -0.14606096 0.1104173 0.1044812 -0.1386507
0.084604226 0.13244502 -0.10393254 0.16074799 0.064107046 -0.14579894 -0.06813243 0.05964417
-0.012013403 -0.006027125 0.15543725 0.13491002 -0.12490183 0.056084927 -0.019938676 0.09861054
-0.015435194 -0.12476245 0.059716918 0.019765018 0.043828808 0.21575807 -0.11689281 0.009909457
0.110422164 0.031258263 0.018946473 -0.3396054 0.1267485 -0.054495987 0.20001589 0.22663064
0.0012373995 0.08791619 0.11102666 -0.1358602 -0.15747377 -0.13200672 0.025293443 -0.04169532
0.18575335 -0.11039056 -0.01123236 0.09621521 0.059394076 0.0033337981 -0.16741754 -0.18373948
-0.042369347 -0.053875018 0.0736614 0.09694442 0.13696992 0.12712453 -0.22199363 -0.113730565
0.15717247 0.016026122 -0.049738783 0.14935085 0.07267773 -0.057249475 -0.012717814 -0.18977427
-0.0027924061 0.0060196924 -0.036950488 -0.22897932 0.04986915 -0.2204423 0.005981375 0.0027610525
-0.071785316 0.18318994 0.10893651 0.27541873 0.0058523235 -0.072084025 -0.16701548 0.08216141
-0.074405044 -0.03095259 0.118632585 0.21981199 0.015659418 0.026866177 -0.1029054 -0.008577701
0.15880966 0.24909085 0.03598546 0.005750911 -0.19247144 0.09231758 0.057048026 0.21529053
0.037604425 -0.108005464 -0.027512258 0.10322928 0.12527879 -0.1769581 0.020286506 0.033638038
-0.11406538 0.12203428 0.38647634 0.3570757 -0.5280012 -0.15869449 -0.20261838 -0.14138278
0.040442936 -0.27701694 -0.15513882 0.37781456 0.34852907 0.30799353 -0.7946833 -0.3686792
0.030535484 0.105533645 -0.033139043 -0.23818545 0.17415664 -0.017193932 -0.077055514 0.07097288
0.0008964164 0.13442461 -0.0005873434 -0.12536334 -0.23989488 0.11996473 0.28674826 0.22551636
-0.120140694 -0.07550853 -0.042221006 -0.03183759 -0.041531213 -0.037963875 0.0854702 0.08843721
-0.053779695 -0.13849795 -0.049772687 0.025208363 -0.08884504 0.102928385 -0.061732367 -0.09514177
00000000: fa06 a2bd 938f 29bd 9015 e5bd 933f 083c
00000010: 77d3 f93d cd17 8a3d fe43 21be cc17 4d3c
00000020: 4df0 98bd 0e3c 223e 1db4 143e e866 a0bc
00000030: f855 813d 6190 e7bc a544 60bc 89e4 07be
00000040: 1360 b23c fa99 29bd 6d73 65bd 2000 883b
00000050: 01ba e53c 851f 1e3d a1d9 d03c dc9b 243d
00000060: 2cea 88bd f53b 783d 676e 8f3d daf6 b7bd
00000070: 8b5a 4c3d cf36 07be b924 e6bc e90d 353d
00000080: d396 8fbd dbeb bc3c 4bf7 a73c d567 983e
00000090: 373c 31bd 7e51 233d 0bee e73d c5fd 8d3e
000000a0: f7b0 07be ad2d d9bd 1cac f93c e339 de3d
000000b0: a896 bf3d 0043 983d c433 6abd 1cdb f2bd
000000c0: 462d 893d f33e 8f3d 2ee9 afbc 1dc5 17bd
000000d0: 8729 e63c 3d96 8fbc cfc0 9a3b ec04 50be
000000e0: 78f9 8d3d 88a2 7ab9 39a0 7ebd 7bd0 f63a
000000f0: 5263 12bd 9ba2 403d dcf7 02bd a1b7 58bd
00000100: e984 53be 6388 ab3d a980 bbbc 6ed8 32bc
00000110: 91b9 cfbc a653 0ebd a845 da3d 5a80 b0bc
00000120: 0a05 d2bd ad63 703d ee82 1dbb a3e4 a73d
00000130: 7770 1a3d c2bd 9ebd 9482 07be a73d 6ebd
00000140: 33f6 483c af2c 023c 4627 a43d 2a17 5b3e
00000150: 75ef 27bd a2de e337 1fc4 dcbc f26f 81bc
00000160: b472 b13c 4c7d 7ebd 7598 bc3c 8d6b 1c3d
00000170: d0b9 053c 3400 943d 0fef edbd 1da0 70bc
00000180: 8373 003e 6f6e a53c 575c efbc 24e1 223e
00000190: 0191 15be 7722 e23d 3dfa d53d 73fa 0dbe
000001a0: fb44 ad3d ab9f 073e 95da d4bd 1f9b 243e
000001b0: 8e4a 833d 514c 15be 0489 8bbd 724d 743d
000001c0: ddd3 44bc 307f c5bb f12a 1f3e da25 0a3e
000001d0: 88cc ffbd 4fb9 653d 6f56 a3bc 53f4 c93d
000001e0: e5e3 7cbc 7583 ffbd ba99 743d 3fea a13c
000001f0: d685 333d afef 5c3e 7f65 efbd 465b 223c
00000200: 0425 e23d aa08 003d a235 9b3c c2e0 adbe
00000210: 5cca 013e 2f37 5fbd f7d0 4c3e dd11 683e
00000220: 3d30 a23a 670d b43d f261 e33d f01e 0bbe
00000230: ce40 21be c52c 07be 3234 cf3c b6c8 2abd
00000240: 2036 3e3e 7214 e2bd ef07 38bc 7b0c c53d
00000250: 3447 733d da7b 5a3b 816f 2bbe 3426 3cbe
00000260: 7b8b 2dbd 0dac 5cbd cadb 963d cc8a c63d
00000270: d841 0c3e ef2c 023e 4c52 63be 92eb e8bd
00000280: d2f1 203e 3749 833c e5ba 4bbd 6eef 183e
00000290: 10d8 943d 6d7e 6abd 615e 50bc 3054 42be
000002a0: cd00 37bb d740 c53b 6559 17bd 8e79 6abe
000002b0: 9843 4c3d a0bb 61be 69ff c33b c6f2 343b
000002c0: 2e04 93bd 2596 3b3e 1b1a df3d af03 8d3e
000002d0: d9c4 bf3b caa0 93bd 1b06 2bbe 3e44 a83d
000002e0: ac61 98bd 4990 fdbc a4f5 f23d 6516 613e
000002f0: 2e48 803c 7516 dc3c 11c0 d2bd 7c89 0cbc
00000300: 009f 223e ac11 7f3e 7d65 133d 2372 bc3b
00000310: 3c17 45be 0011 bd3d 31ab 693d 1f75 5c3e
00000320: 1907 1a3d f831 ddbd 6361 e1bc df69 d33d
00000330: 1549 003e 8134 35be e32f a63c 0ac8 093d
00000340: 1c9b e9bd 1ced f93d 3ae0 c53e a0d2 b63e
00000350: 162b 07bf cf80 22be 317b 4fbe a6c6 10be
00000360: 7ea7 253d 2ad5 8dbe b6dc 1ebe e970 c13e
00000370: 6772 b23e 54b1 9d3e 5d70 4bbf 85c3 bcbe
00000380: 8d25 fa3c 0622 d83d cebc 07bd e3e6 73be
00000390: 1e56 323e 4ada 8cbc 48cf 9dbd 3b5a 913d
000003a0: 7cfd 6a3a 9ba6 093e f3f7 19ba 3f5f 00be
000003b0: 01a7 75be 12b0 f53d abd0 923e c3ed 663e
000003c0: 530c f6bd 37a4 9abd efef 2cbd 2268 02bd
000003d0: a21c 2abd 0280 1bbd 000b af3d 911e b53d
000003e0: 1948 5cbd 68d2 0dbe 72de 4bbd c581 ce3c
000003f0: 63f4 b5bd 1ecc d23d 14db 7cbd b0d9 c2bd

cells.2.gate_i.bias f4 [16]
0.10087491 0.10660894 0.3312672 -0.2637339 0.05720974 -0.0029841256 0.032682724 0.15016955
-0.07598696 -0.17973243 0.1528529 0.15898724 0.038650274 -0.136716 -0.13471308 -0.122409545
00000000: 8197 ce3d ca55 da3d db9b a93e 2108 87be
00000010: c354 6a3d 5291 43bb 52de 053d 0cc6 193e
00000020: 0d9f 9bbd c70b 38be 7885 1c3e 8dcd 223e
00000030: c04f 1e3d 47ff 0bbe 3af2 09be dbb1 fabd

cells.2.gate_s.weight f4 [16, 1]
0.30410483 -0.66895354 -1.4374052 0.004929538 0.93711084 -0.010652376 -0.007525517 0.55835116
0.03812386 -1.1433792 0.3086185 -1.1123507 0.30470935 -0.7606794 1.1621016 0.60960263
00000000: a1b3 9b3e 8a40 2bbf e5fc b7bf f687 a13b
00000010: 7fe6 6f3f 4e87 2ebc 9d98 f6bb 1af0 0e3f
00000020: c427 1c3d 405a 92bf 3e03 9e3e 8261 8ebf
00000030: dd02 9c3e e3bb 42bf bfbf 943f eb0e 1c3f

cells.2.gate_s.bias f4 [16]
0.6828677 -0.4108446 -0.60309523 -0.5783165 -0.6128479 -0.08906747 -0.5673898 -0.31160176
0.6245878 0.6976013 -0.29817837 0.03939442 -0.59336936 0.49029619 0.57570434 -0.045481004
00000000: 6bd0 2e3f 395a d2be 7364 1abf 8d0c 14bf
00000010: 9ae3 1cbf 0169 b6bd 7540 11bf 448a 9fbe
00000020: fce4 1f3f 0096 323f d6aa 98be 0b5c 213d
00000030: 0ee7 17bf 1a08 fb3e 5c61 133f 4a4a 3abd

cells.2.gate_h.weight f4 [16, 16]
-0.0069306954 0.13804473 0.28255194 -0.001093854 0.016431984 0.07041706 0.06996648 0.12514818
-0.14912802 0.12915154 -0.0107514905 0.15304263 0.25163049 0.297533 -0.22945991 -0.064045906
0.15207087 -0.0954872 -0.20541996 -0.11604042 -0.065874815 -0.018198572 -0.033426363 -0.15011413
-0.011024912 -0.11295902 -0.01997326 -0.09303348 -0.09077431 -0.106478415 0.24369171 -0.0029903215
0.24357958 -0.15661402 -0.37169492 0.0020847854 -0.10104321 -0.15198414 -0.30459455 -0.09877294
0.20080604 -0.13635767 0.2056509 -0.24035196 -0.24224226 -0.36673254 0.20630056 0.008263368
-0.15916741 0.059797727 -0.014705649 0.2820368 0.028874623 0.06892302 0.060166154 0.09088611
-0.11410996 -0.080007754 0.13160367 0.043519277 0.013006467 -0.12604965 0.042949703 0.067636915
0.1434033 0.2269247 0.23785298 -0.043716323 -0.26918852 -0.21885432 -0.060461488 -0.12776148
0.15570197 0.24253395 -0.18893644 0.017615736 -0.11791331 0.31271604 -0.14887524 -0.2774251
0.0069550322 0.08810843 0.16422302 -0.0100906445 0.06878149 -0.20510152 0.049561433 0.17680222
0.02660372 0.115806036 -0.052122068 0.13596249 0.08702781 0.12736012 -0.15704031 -0.060570326
-0.019529961 -0.020281607 0.039349083 -0.03764164 -0.15982679 0.048118018 -0.028857343 0.16701859
0.1015255 -0.14129312 0.13789727 -0.042154264 0.045560904 -0.40075234 -0.047987346 0.19898394
0.040659256 0.3369734 0.33148387 0.2102529 0.057931177 -0.20693213 -0.05929142 0.056993015
0.1353022 0.22122139 0.07024864 0.4092374 0.17860672 0.213388 -0.39924443 -0.20574136
0.04305436 -0.008955578 -0.34820995 -0.009122386 0.04891018 -0.1658367 -0.11562465 -0.16120052
0.15136833 -0.17303124 -0.018226577 -0.118779406 -0.10934702 -0.3988229 0.10651995 0.06304706
-0.08132303 -0.12762648 -0.15636528 0.19622354 -0.08883052 0.068638586 0.09046256 -0.09886461
0.06820431 -0.25582403 0.12543045 0.003842608 -0.1818238 -0.38462067 0.31390882 0.059242323
-0.17763111 0.098055944 -0.04296197 -0.21419689 0.12200438 -0.18091895 -0.022604177 -0.15948692
-0.116908155 0.044307023 -0.20594344 0.24943545 0.20799638 0.3932969 -0.024385372 -0.11144334
-0.038240414 -0.08819038 -0.52829206 -0.053957906 0.14352377 -0.0019301157 0.04718142 -0.18791102
-0.107492976 -0.37360656 0.10520651 -0.18164936 -0.032166313 -0.48771688 0.32238916 0.046710987
0.025942024 0.06714287 0.028610406 0.048441008 0.038952965 -0.072466984 0.040869277 -0.08746413
0.23364913 0.0774732 -0.12989305 -0.10495358 -0.10408648 0.12285018 0.09146774 0.016972246
0.00060693215 -0.110612795 0.04021044 -0.23363756 -0.18673804 0.1765063 0.09874658 0.2104757
0.025047239 0.09558005 -0.060318053 -0.05895602 -0.12535378 0.3559475 -0.22165553 0.0053153597
-0.09251931 0.07776975 0.2506499 0.016507352 0.070069104 0.2079975 0.04056392 -0.024896817
-0.11309939 0.054590657 0.100146264 0.1325276 0.18646343 0.25741884 -0.26379302 0.0096346615
0.008583372 -0.043968406 0.120689675 0.0995639 0.011820996 -0.0041592894 -0.05894754 0.053674538
0.03154931 0.07048808 0.005287726 0.18170169 0.08176143 0.14492802 -0.11395705 -0.061007056
00000000: e31a e3bb 995b 0d3e a6aa 903e a65f 8fba
00000010: 5e9c 863c d236 903d 964a 8f3d d826 003e
00000020: 04b5 18be 4d40 043e 0527 30bc 35b7 1c3e
00000030: b6d5 803e 3f56 983e 8af7 6abe 802a 83bd
00000040: 77b8 1b3e cb8e c3bd 9c59 52be 9aa6 edbd
00000050: 60e9 86bd 2c15 95bc 15ea 08bd 85b7 19be
00000060: d5a1 34bc 0f57 e7bd f69e a3bc 5688 bebd
00000070: e2e7 b9bd 5b11 dabd 528a 793e 45f9 43bb
00000080: ed6c 793e 6d5f 20be cc4e bebe e5a0 083b
00000090: beef cebd bba1 1bbe d1f3 9bbe 7849 cabd
000000a0: 19a0 4d3e 58a1 0bbe 2696 523e d31e 76be
000000b0: 5b0e 78be 5ec4 bbbe 7440 533e 1463 073c
000000c0: c8fc 22be 76ee 743d f6ef 70bc 2167 903e
000000d0: 798a ec3c 8327 8d3d c970 763d 7f22 ba3d
000000e0: 7cb2 e9bd 1bdb a3bd 1dc3 063e 4541 323d
000000f0: 1419 553c 2913 01be 07ec 2f3d 3985 8a3d
00000100: 51d8 123e f35e 683e bb8f 733e e30f 33bd
00000110: 14d3 89be 591b 60be 77a6 77bd e8d3 02be
00000120: 5670 1f3e d25a 783e 8e78 41be e04e 903c
00000130: 897c f1bd 511c a03e c072 18be aa0a 8ebe
00000140: 0ae7 e33b 3172 b43d 142a 283e 3b53 25bc
00000150: 4fdd 8c3d 2206 52be ee00 4b3d a40b 353e
00000160: 0bf0 d93c b72b ed3d f37d 55bd c039 0b3e
00000170: a33b b23d b16a 023e 2dcf 20be 9718 78bd
00000180: 4cfd 9fbc 9d25 a6bc 812c 213d 1f2e 1abd
00000190: a2a9 23be 6617 453d 3c66 ecbc ec06 2b3e
000001a0: 9aec cf3d 25af 10be f134 0d3e f3a9 2cbd
000001b0: 129e 3a3d 692f cdbe 618e 44bd 72c2 4b3e
000001c0: 528a 263d c787 ac3e 41b8 a93e 894c 573e
000001d0: 3e49 6d3d 04e6 53be 8fdb 72bd 8271 693d
000001e0: a98c 0a3e dc87 623e 85de 8f3d 9187 d13e
000001f0: aee4 363e 6282 5a3e c469 ccbe ddad 52be
00000200: c559 303d 6bba 12bc 9348 b2be 0f76 15bc
00000210: 0a56 483d 19d1 29be 9ecc ecbd c011 25be
00000220: 4d00 1b3e 1a2f 31be e74f 95bc 9e42 f3bd
00000230: 55f1 dfbd 8432 ccbe 2227 da3d d11e 813d
00000240: b08c a6bd 84b0 02be 381e 20be d3ee 483e
00000250: c7ec b5bd 6392 8c3d 6f44 b93d 8779 cabd
00000260: b4ae 8b3d 5efb 82be d770 003e 44d4 7b3b
00000270: 0530 3abe 00ed c4be a8b8 a03e 14a8 723d
00000280: eee4 35be 8ed1 c83d e4f8 2fbd 6e56 5bbe
00000290: 6fdd f93d d142 39be 652c b9bc 8a50 23be
000002a0: 8b6d efbd 487b 353d d6e2 52be 026c 7f3e
000002b0: 01fd 543e 365e c93e d5c3 c7bc 683c e4bd
000002c0: fba1 1cbd 289d b4bd 263e 07bf f702 5dbd
000002d0: e5f7 123e f0fb fcba 4e41 413d bf6b 40be
000002e0: 4725 dcbd 5c49 bfbe 8376 d73d 4a02 3abe
000002f0: d3c0 03bd 07b6 f9be 3110 a53e 0554 3f3d
00000300: 5e84 d43c 3382 893d 5f60 ea3c 146a 463d
00000310: 258d 1f3d 9269 94bd 8b66 273d 6520 b3bd
00000320: b841 6f3e 45aa 9e3d af02 05be e7f1 d6bd
00000330: 4b2b d5bd e098 fb3d 7053 bb3d 6109 8b3c
00000340: 871a 1f3a f688 e2bd b4b3 243d af3e 6fbe
00000350: 4238 3fbe 11be 343e a63b ca3d f186 573e
00000360: de2f cd3c 79bf c33d 1010 77bd de7b 71bd
00000370: be5c 00be c03e b63e abf9 62be 782c ae3b
00000380: c47a bdbd bf45 9f3d 2f55 803e 6d3a 873c
00000390: 6480 8f3d 4cfd 543e 5a26 263d 69f4 cbbc
000003a0: a7a0 e7bd 749a 5f3d 7c19 cd3d 51b5 073e
000003b0: 45f0 3e3e 67cc 833e e10f 87be b3da 1d3c
000003c0: 46a1 0c3c 3718 34bd 262c f73d 28e8 cb3d
000003d0: daac 413c a64a 88bb fa72 71bd d5d9 5b3d
000003e0: d939 013d 0e5c 903d a944 ad3b 0210 3a3e
000003f0: 8972 a73d 0368 143e 5062 e9bd 89e2 79bd

cells.2.gate_h.bias f4 [16]
0.073384374 0.1732879 0.05255514 -0.22960337 -0.071393386 0.022358466 -0.11524577 0.09884744
0.17361756 0.09783781 0.05709937 0.032283682 0.079360515 -0.051842064 -0.35570928 0.04083711
00000000: 8c4a 963d 6272 313e 0f44 573d 251d 6bbe
00000010: b236 92bd 1a29 b73c f905 ecbd 8770 ca3d
00000020: cdc8 313e 315f c83d 07e1 693d e53b 043d
00000030: c487 a23d 5858 54bd 871f b6be d044 273d

linear.weight f4 [1, 16]
0.07236653 -0.1058092 -0.27347627 -0.13009137 0.07222144 0.017301898 -0.05527558 0.029858364
-0.13229553 -0.19591407 0.0901534 -0.2749776 -0.07158864 -0.38058624 0.22877076 0.07864766
00000000: e734 943d 7eb2 d8bd 1505 8cbe ac36 05be
00000010: d6e8 933d b6bc 8d3c a668 62bd 8799 f43c
00000020: 7b78 07be b39d 48be 59a2 b83d ddc9 8cbe
00000030: 119d 92bd 33dc c2be e242 6a3e 0612 a13d
