SRNN/gridsearch/srnn_s/model_state_dict.pt (torch, 21303 bytes, 31 tensors)

cells.0.gate_i.weight f4 [16, 1]
00000000: 37fa 8f3e 1cd0 f93e a468 0e3e 02ed 883f
00000010: ff16 3cbd 2c56 d7be 97d3 0f3f 226d af3f
00000020: 559b 043f 8b1d 70bf 60e1 923f 292f 723d
00000030: e682 e8be a52b 503e 6efb e73e fe2e 65be
0.28120586 0.48791587 0.13907105 1.0697329 -0.04592037 -0.4205793 0.56182235 1.370518
0.5179952 -0.9379508 1.1475029 0.059127007 -0.45412368 0.20329149 0.45309013 -0.22381207

cells.0.gate_i.bias f4 [16]
00000000: 42fc 533f 8660 623e 57f0 e2bd d4ab 76bf
00000010: f57a 2e3f 1cf6 19bf 7fc8 433f 8dc7 88be
00000020: f664 5cbf 7ffe 1fbf df24 48be 557b a03e
00000030: 9b95 21bf c69d c5be d66a 213d 403a b53e
0.8280679 0.22107133 -0.110809974 -0.9635594 0.6815637 -0.6014116 0.7647781 -0.26714745
-0.86091554 -0.62497705 -0.19545315 0.31344095 -0.63118905 -0.38596934 0.039408527 0.35396004

cells.0.gate_s.weight f4 [16, 1]
00000000: 7af6 8f3e b84a 093f b9cb 1c3e 191a 823f
00000010: 7601 d4be fba5 12bf ca54 103f 00af 513f
00000020: 23f6 ff3e 29a7 97bf 57a0 8f3f a1d2 703d
00000030: f4b2 8bbe e77a 1b3f 483a ea3e 8b4d 4fbe
0.28117734 0.53629637 0.15312089 1.0164214 -0.41407365 -0.57284516 0.5637938 0.81907654
0.49992475 -1.1847888 1.1220807 0.05879462 -0.27284968 0.6073441 0.4574759 -0.20244424

cells.0.gate_s.bias f4 [16]
00000000: 6354 0f3f b719 693f 58bb f53e 2938 09bf
00000010: dc16 dbbe 2442 063d f238 37bf 435b c0be
00000020: 5bab f1be 9710 2e3e 8c2c 093f 5eaa 433f
00000030: 9019 e53e c38e 223f edc1 0fbd 5f44 493f
0.5598814 0.9105486 0.47994494 -0.5360132 -0.42790878 0.03277792 -0.71571267 -0.37569627
-0.47201046 0.16998516 0.535836 0.76431835 0.44746065 0.6349909 -0.03509705 0.7861995

cells.0.gate_h.weight f4 [16, 16]
00000000: 1f91 96be a8e3 f8be 83be d7bd 38d6 d9be
00000010: a9bb 253c fc74 a03c c7f2 e2be b766 adbe
00000020: af12 1cbd 15b7 b33d 5984 033d fb39 ac3d
00000030: c10b 603e 49b7 43be ca57 d3be d667 1abe
00000040: 7586 ac3d 759a 28be 3fab 4dbe 2798 9e3d
00000050: 1817 b8bc 91be 8b3e 76ad 3fbe 41f8 45be
00000060: 88ee 873e b736 cb3d 45ff 62be 1e0d d7bd
00000070: defb f1bb 1039 863e 1f09 17bd 0bfc 5dbe
00000080: 2da2 9ebc 714a aa3c 564d 723d a9ca 80be
00000090: f5e2 473d 2dd1 893d 841b d6bd f2fd 03be
000000a0: 331f 0bbe 739b a93d 784a 043e 7659 243e
000000b0: ec3e c3bd e9a6 aaba 960f b0bd 5147 623e
000000c0: 85d3 a03e 230f d73d 159b bf3d 5720 d5be
000000d0: ffb2 67be bd70 7e3d 3ae2 7e3e f1a0 ca3d
000000e0: 8449 98bc dedf cdbd b76e 403e a398 91be
000000f0: 7dd7 09bf 87ca 2f3e 9c02 bc3c 8ccc 263e
00000100: 3cb0 833e 190e 283d 9652 9a3d ec63 b13e
00000110: 66aa a7be 2927 9cbd 4f73 23be 77e5 193e
00000120: ce6a c0bc 58ab 9f3d b719 88be 205d d73c
00000130: de0c 703e 19da 4a3e dd4b a9bd dc2d 40be
00000140: 74d8 483e 6ea7 1cbe b150 7cbe 0fce 6abe
00000150: 2ffd 30be c378 4cbe 9113 52be 62b1 873d
00000160: 44a3 0e3e f999 f83e f40d 15bd 4446 883d
00000170: 2ed8 4b3e 08e3 e43d c9ce dcbd a13d 5e3e
00000180: 8b40 2abe 9fe4 91bd 2e0c 013e 0a35 02be
00000190: 9ecc 89be def6 b83d c7e0 a4be bef1 5fbd
000001a0: e8aa 0c3e bd89 2b3e bfc9 51bc eb73 02be
000001b0: 1bc2 18be eda3 293e 2fc4 b5bd 0813 84bc
000001c0: 7152 71be 2011 f83d d655 2ebe 93dc 5bbe
000001d0: 0d5b 90be 4692 363d 0f43 57be 59f7 9f3a
000001e0: 8d2f 303e 8c49 793e 3956 ec3d 0b5c 0c3e
000001f0: e4c6 77be f6ff 693e fcf8 6cbe 6420 31be
00000200: 8cda dfbd 0e7a 57be 0243 773d 88e3 97be
00000210: 9881 f6bc 6e23 79be fca4 b83c 2365 abbe
00000220: 5221 963b e7eb 57be 7a83 633e 5ebe c2bd
00000230: 1673 4b3d 0456 00be 598e ab3d b4e4 09be
00000240: 8e46 cebd 8f47 91bd 4005 08be fa76 3ebe
00000250: cef9 913e f544 49be e104 1c3d 3a3f 1dbe
00000260: d3bf 2b3e 93a5 dfbd 6a1f 823e 56d3 3d3e
00000270: eb97 683e ae1e 75be e6cb 87bd 6ba6 ffbd
00000280: 7856 773e 68d7 8dbd 7b23 c4bd c52d 0c3e
00000290: 1b8f 75bd a865 f0bc 6225 9a3e 9115 42be
000002a0: 6a18 603e 6af8 01be 9708 ed39 5588 50bc
000002b0: b05a 3a3c 3c64 213e eb18 b43a b51a 493e
000002c0: 075a a4bd ee14 2b3e 8c51 e6bd f687 5638
000002d0: d382 43bc 8a45 c4bd 1123 523e 1061 2dbb
000002e0: 1ca4 823e a05d 46bc 57c6 73be 59ee fdbd
000002f0: 122b 99bd e741 2e3e 2be4 d53d c990 8abe
00000300: 3448 2cbe 7acb 383e 0e72 18be bc0d 903e
00000310: 657d e5bd eca7 0abe 52be 093e e906 483e
00000320: 783d 46be 71c8 a0be bc1d 4f3e becd 853e
00000330: 07f3 0e3e 4e54 323d 91db b03e efa1 2a3e
00000340: 999c aabd dcb0 abbd 9eff 1d3d c2f4 643c
00000350: 55c6 2e3e 7ce7 193e 7593 163e 34ee 83be
00000360: dea8 24bd ac93 6cbd 7c69 9b3c cb7f d8bc
00000370: 483c 033e f595 85be 1887 9c3d e4cc a2bd
00000380: 64be 0fbd d81d 80be c733 233e 2e4e 6f3e
00000390: 16b3 b3be b55b 1dbe 2d5e b13d e204 40bd
000003a0: db43 61be def0 4abc ebca 513d 47cb 193e
000003b0: 7450 1bbe 75c4 5e3e 850c 11be d410 353d
000003c0: d4e4 793e 80e5 ab3e 7294 08be 7b84 2bbd
000003d0: e39b 6c3e b08e 343e a60f ba3e 5213 b8bc
000003e0: e760 13bd b03d dc3d 5442 8d3d 0261 433a
000003f0: 20dd 883d b4d9 55be 4e60 2c3d 3ae6 cf3d
-0.29407594 -0.48611188 -0.10534384 -0.42546248 0.010115542 0.019587032 -0.4432585 -0.33867428
-0.038103756 0.087751545 0.03210864 0.084094964 0.21879484 -0.19112886 -0.41277915 -0.15078673
0.08424083 -0.1646517 -0.20084856 0.077438645 -0.02247195 0.27293828 -0.18718514 -0.19332983
0.26549172 0.099225454 -0.2216769 -0.10500549 -0.0073847612 0.2621541 -0.036873933 -0.21678178
-0.01936444 0.02078745 0.059155785 -0.25154617 0.048800427 0.0672935 -0.10454467 -0.12889841
-0.1358612 0.08281603 0.12919033 0.16049752 -0.09533486 -0.0013019714 -0.08596723 0.22097518
0.31411377 0.10500934 0.093557514 -0.41626236 -0.22626875 0.062119234 0.24890986 0.098939784
-0.018589742 -0.10052465 0.18792234 -0.28436765 -0.53844434 0.17167102 0.022950463 0.16288966
0.25720394 0.04102907 0.07535283 0.34646547 -0.3274719 -0.07624657 -0.15961955 0.1502894
-0.023488428 0.07796353 -0.2658212 0.026289523 0.23442408 0.1980976 -0.08266423 -0.18767494
0.1961382 -0.15298244 -0.24640156 -0.22930168 -0.17284082 -0.19967942 -0.20515276 0.0662563
0.13929468 0.48554972 -0.03639026 0.06654027 0.19906685 0.11176115 -0.10781629 0.21703197
-0.16626184 -0.07123684 0.12602302 -0.12715545 -0.26913923 0.09031461 -0.32202742 -0.054673903
0.1373707 0.16751762 -0.012804448 -0.12739532 -0.14917795 0.16566439 -0.0887531 -0.016122356
-0.23566605 0.12112641 -0.17024931 -0.21470861 -0.28194466 0.04457309 -0.21021675 0.0012204453
0.17205639 0.24344462 0.11539883 0.13706987 -0.24196965 0.22851548 -0.23141855 -0.17297512
-0.109303564 -0.21042654 0.060366638 -0.2966578 -0.030091092 -0.24329922 0.022539608 -0.334756
0.004581609 -0.21086083 0.22218123 -0.09508966 0.0496703 -0.12532812 0.0837676 -0.1346615
-0.10072051 -0.07093727 -0.13283253 -0.18600073 0.28510898 -0.19655211 0.03809059 -0.1535615
0.16772394 -0.10920253 0.25414592 0.1853765 0.22714202 -0.23937485 -0.066306874 -0.124829136
0.24154079 -0.06925851 -0.0957708 0.13689335 -0.05995093 -0.029345348 0.30106646 -0.1895354
0.21884313 -0.12692419 0.00045210563 -0.012727817 0.011374161 0.15760893 0.0013740336 0.19639094
-0.08024984 0.16707203 -0.112460226 5.11482e-05 -0.011933046 -0.09583576 0.2052119 -0.002645556
0.2551583 -0.012107283 -0.2380613 -0.12398977 -0.07478918 0.17017327 0.1044391 -0.27063587
-0.16824418 0.1804637 -0.14887258 0.28135478 -0.11205558 -0.1354062 0.13451508 0.19533886
-0.19359386 -0.31402925 0.20226187 0.2613353 0.13959895 0.04353743 0.34542516 0.16663335
-0.0833065 -0.083833426 0.038573854 0.01397437 0.17067845 0.1502971 0.14704688 -0.25767672
-0.040200107 -0.05775802 0.018971197 -0.026428124 0.12815964 -0.2609097 0.076429546 -0.07949236
-0.03509368 -0.2502277 0.1593772 0.23369667 -0.3509757 -0.15367015 0.08660541 -0.046879657
-0.21998541 -0.012386529 0.05121891 0.1501895 -0.15167409 0.2175463 -0.14164932 0.0442055
0.24403697 0.33573532 -0.13337877 -0.04187439 0.23106341 0.17632556 0.36340064 -0.02247015
-0.035981085 0.107539535 0.06897417 0.0007453115 0.06682801 -0.20883828 0.04208403 0.10151334

cells.0.gate_h.bias f4 [16]
00000000: a0af 3dbe 6e63 87be 6fa7 5abe c361 36be
00000010: fd11 1d3e 6ead 64be 81eb 553e 77d0 2abe
00000020: 656d 473e 944e 1ebc abca c03c 57b8 083d
00000030: f88a cebd 57c1 45be 5577 89be 6695 793d
-0.18524027 -0.26443046 -0.21352933 -0.1781073 0.15338893 -0.22331783 0.20890619 -0.16681086
0.19475324 -0.009662289 0.02353414 0.033378925 -0.100851 -0.19312035 -0.26848856 0.060933493

cells.1.gate_i.weight f4 [16, 16]
00000000: 4304 1bbe 4683 a63d 7e23 4ebe 0a73 823e
00000010: 70b2 223e 8714 2fbe 69a2 333d 0dba be3d
00000020: f70b 46bd d977 b9bd b722 35bd 8fe4 0bbe
00000030: 566c 50be 17b6 bc3d 4fbb a8bd 1452 423e
00000040: 497a 063e 000c acbe 520c 9c3c 1c94 1cbe
00000050: 528c 33be 6cf1 7e3e 5ccf e13d bb22 303e
00000060: 9faa 4fbe c103 34be 1471 573e 3fec 2e3e
00000070: 7c54 27be 8f66 f7bd d686 cfbd 5eb4 6ebe
00000080: 8d2c 0ebd 2d0a ac3e de10 433d 7cba 4bbd
00000090: 7a4d 1a3e 0079 83bc 0aab cc3d 3f51 8b3d
000000a0: 97c3 64be 85f8 1fbe 717d 7abe 6769 603c
000000b0: c34b c33d 78d0 5d3e 839b e53d 527b 5dbc
000000c0: 8312 063e e74b 343d 68a9 80bd 826b 50be
000000d0: 29bd fe3d 8d6c 7ebe 47c3 08be f4f1 a1be
000000e0: 1c9c 3abe 6ea7 0bbd af0a ccbd 053c 923e
000000f0: ee5e e03d d925 d0bd ec11 f8bd 795c 363e
00000100: dd78 6d3e eaf4 00be a778 b5bd 024a 1cbe
00000110: 6b4a 05be 326a fabd 6490 b7be 6c33 10be
00000120: 620f c0bc 695a 5f3b 9055 243e 3141 03be
00000130: 7aed 02be 6c79 203e a608 5dbd 12a2 c23b
00000140: a089 243d 8b62 003e dec5 223e a8a5 6c3e
00000150: 0514 853d ccf0 ca3e 9d2f f23d d15b 843e
00000160: 6236 92bc 6cc5 293d 045d 4ebe 0985 dc3d
00000170: 4bcc 75bd a3cb 6b3e 7034 e8bd 0ff7 203e
00000180: c33c a3bd 857c da3d cfec 973d f6ef 8cbd
00000190: 7fce 53be 09f3 a6bd 8330 3dbe d0f0 8ebe
000001a0: d565 f5bc fbaf d5bd d5a3 373e 335a 6abd
000001b0: 4492 bf3d 1c18 193c 26fc d63d c633 353e
000001c0: d49f 34be 6958 a5be 2476 933e bae2 423c
000001d0: e1df 833b e4ac 81be 2d10 c0be 6f61 023e
000001e0: 4b3f 13be 6d2a eabc be9f 973e 26d7 423e
000001f0: d8a1 97bd 9c89 fc3d 9d61 8abe ba85 e1bd
00000200: 9447 9f3d e547 25be 0c0d a23d fc72 303e
00000210: 6b36 72be 635a 263d 1539 7dbe 2232 1fbe
00000220: 8f18 56be fa10 40be 7cae 663e e5c1 42be
00000230: 7762 a7bd 91e7 92be 4c5c 84be 057c 003e
00000240: 79a0 173e 50af f8bd ed72 01be 4ead e8bd
00000250: d10f 323e 34a1 183e 5f97 17be 8df5 2f3e
00000260: 6842 113b d7fa 283e eb72 d139 98b1 c63d
00000270: b041 42be 3284 663e 514e 31bc 5e18 3ebc
00000280: 24a5 95bd 6f27 3ebd 1e06 89bd c9e0 ef3d
00000290: 72d7 30be adf1 e0bc aba5 e53d 0a46 f9bd
000002a0: 602b ebbd 18ae 603e 5de7 09be 4589 c6bd
000002b0: c8b6 12bd 9f95 d0bd 7381 5d3e 5082 393c
000002c0: b2c2 253b 4725 4a3c 3db6 873d bd5a c4bd
000002d0: 2c8a d93d 196b 57bc 557e aa3e b8a2 3c3e
000002e0: 4a38 343e 3f32 d93d 089c a03d 15c9 d03d
000002f0: 1888 ccbc 2422 373e 6bbc 83bc 072a cd3d
00000300: 763d 23be 0bf5 21be 6c71 38be 085e 8fbd
00000310: 45d3 903e bd66 53be f3c1 833d 4589 073e
00000320: 3b1e 54be cbe7 293e 4c37 f33d 4f91 31be
00000330: bfa9 3f3d 05e5 613d eb97 723e c124 8d3e
00000340: bd06 73be 0598 e43d ef13 36be 5244 0dbd
00000350: 31f2 61be 683a 253c 9754 6bbe c87e 223d
00000360: d5c1 e93d e3f2 323c 0541 fe3d 9267 1fbe
00000370: 9546 483e 2b2d 3d3d 1fd5 6abe da80 603e
00000380: 071a f23c 6a4d 59be 0f97 273e 9501 273e
00000390: 4e56 293e 248e 323e 3569 26be 1e65 d1bd
000003a0: 976d fa3c cde4 333e a830 833e 14b8 743e
000003b0: 5e07 23be f19f 84be b526 1bbe a01e 253e
000003c0: 9f30 563d 6d56 e23c c063 6cbd b8ea 73be
000003d0: ee37 0c3d 9e0e a93d 2586 e73d adb1 153e
000003e0: 5e8c 0fbe 51d9 25be 5db9 d3bd efce 2b3e
000003f0: f826 0b3e fdf4 8abd e2e8 383e 3a97 833e
-0.15138344 0.08130507 -0.20130727 0.25478393 0.15888381 -0.17097674 0.04385606 0.0931283
-0.048351254 -0.09056062 -0.04422256 -0.13661407 -0.20353827 0.092144184 -0.08238851 0.18976623
0.13132586 -0.33602905 0.019048844 -0.15290874 -0.17533997 0.24896783 0.11025879 0.17200749
-0.2027993 -0.17579557 0.2103923 0.17082308 -0.16340822 -0.120801084 -0.1013314 -0.23310992
-0.034710456 0.33601514 0.047623508 -0.049738392 0.15068617 -0.016048908 0.099935606 0.06802606
-0.22340237 -0.15622146 -0.24461915 0.013697005 0.09535935 0.21661556 0.11211302 -0.013518171
0.13092999 0.0440177 -0.06282312 -0.20353511 0.12438423 -0.24846096 -0.13355742 -0.31629908
-0.18223614 -0.03409522 -0.09962975 0.28561416 0.109556064 -0.10163469 -0.12112793 0.17808713
0.23190637 -0.12593427 -0.08860903 -0.15262607 -0.1301667 -0.122272864 -0.3585235 -0.14082116
-0.023444835 0.0034080988 0.16048265 -0.12817837 -0.12785903 0.15671319 -0.053963326 0.0059397304
0.040170312 0.12537591 0.15895793 0.23110068 0.06497959 0.39636838 0.11825488 0.258513
-0.017848197 0.04144804 -0.2015267 0.10767562 -0.060009282 0.230269 -0.11338127 0.15719245
-0.07970574 0.106682815 0.074182145 -0.068817064 -0.20684241 -0.08151824 -0.18475537 -0.279181
-0.029955784 -0.10433956 0.1793359 -0.057214927 0.0935407 0.009344127 0.10497312 0.17695531
-0.17639095 -0.32294014 0.28801072 0.011894876 0.004024491 -0.25327218 -0.3751234 0.1273248
-0.14379613 -0.028584683 0.2961406 0.19027385 -0.07403916 0.123309344 -0.27027598 -0.110118344
0.07777324 -0.16140707 0.07912645 0.17231363 -0.23653571 0.040613543 -0.24728806 -0.15546468
-0.20907806 -0.18756476 0.22527498 -0.19019277 -0.081730776 -0.28692296 -0.25851667 0.1254731
0.14807309 -0.12142813 -0.12641497 -0.1136118 0.17388846 0.14905244 -0.14803837 0.17183514
0.0022164825 0.16501938 0.00039949207 0.09701842 -0.1897037 0.22511366 -0.010821895 -0.011602489
-0.07306889 -0.046424326 -0.0669062 0.11712796 -0.17269686 -0.02745899 0.11213239 -0.12171562
-0.114828825 0.21941411 -0.13467164 -0.09694151 -0.035818845 -0.10184788 0.21631412 0.011322573
0.002529305 0.012337989 0.06626556 -0.095876195 0.10622057 -0.013148093 0.3329951 0.18421447
0.17599598 0.10605287 0.078422606 0.10194603 -0.024967238 0.17884117 -0.016081056 0.10017782
-0.15941414 -0.15816133 -0.18012017 -0.07000357 0.28286186 -0.2064466 0.06433477 0.13235958
-0.20714657 0.16592328 0.118757814 -0.17340587 0.046792742 0.05515005 0.23690765 0.27567104
-0.23733039 0.11161808 -0.17781042 -0.034488983 -0.22065045 0.010084726 -0.22981487 0.03967169
0.11413924 0.0109221665 0.12414745 -0.15566853 0.19558175 0.046185654 -0.22932862 0.21924153
0.029553426 -0.21220937 0.16366218 0.16309197 0.16536829 0.17437035 -0.16251071 -0.10224365
0.030569835 0.1756775 0.2562306 0.23898345 -0.15920779 -0.25903276 -0.15151484 0.16124964
0.052292462 0.027629102 -0.057712317 -0.23820007 0.034233026 0.08254741 0.11304883 0.14618559
-0.1401839 -0.16196181 -0.103380896 0.16778158 0.13589084 -0.06785009 0.18057588 0.25701314

cells.1.gate_i.bias f4 [16]
00000000: 8c78 71be f817 4c3e 1153 39be 94fc fabc
00000010: 6eb4 873e c9ed 133e 008d db3d 7d0d 0ebe
00000020: 0f64 4d3e 7e72 75bd ecb5 9e3d c3d3 bebd
00000030: 6471 c23d c8fd 64bd a5fe 5c3e be6e a6bd
-0.23581141 0.19931018 -0.18098094 -0.030638017 0.26504844 0.14446177 0.10720253 -0.13872333
0.200577 -0.05992364 0.077495426 -0.09317734 0.09494284 -0.055906087 0.21581514 -0.08126591

cells.1.gate_s.weight f4 [16, 1]
00000000: 6ffe 563f dcb1 5c3f 8980 39be 5376 9a3e
00000010: bb7d 0cbf 1dd4 5bbf e295 9ebe e388 18bf
00000020: 8491 7c3d 7261 80ba e628 b4bf 62ba d0bb
00000030: a144 2f3e 4007 3ebe 71fa 1d3e 22ba 37bb
0.83981985 0.8620889 -0.18115439 0.301684 -0.5487935 -0.85870534 -0.30973727 -0.5958387
0.061662212 -0.0009794666 -1.4074981 -0.006369875 0.17116024 -0.18557453 0.15427567 -0.0028034528

cells.1.gate_s.bias f4 [16]
00000000: f1fe fabd 286c 823e 398f e0be 442c 4fbf
00000010: 87f3 36bf b6b8 673f 36b8 ebbe 37f2 0a3f
00000020: e9c3 743f bc5e 6cbf 5097 253d dfd6 82be
00000030: 0f6d fb3e 8003 b43e 3189 4cbf f93d 4a3f
-0.122556575 0.25473142 -0.4385927 -0.8092692 -0.71465343 0.9051622 -0.4603898 0.5427584
0.95611435 -0.92332053 0.040427506 -0.2555456 0.49106643 0.3515892 -0.7989684 0.7900081

cells.1.gate_h.weight f4 [16, 16]
00000000: 7a38 22be 2959 1bb9 fb65 52bd 72ff e7bd
00000010: 7ffc 3c3e d3f8 ec3d ff30 e8ba f3a7 02be
00000020: 954d 253e c369 4fbe a6ff 9f3d f676 3c3e
00000030: 9572 2bbd 4c78 3b3d 07d5 31be 0230 393e
00000040: ed61 77be 8022 c7bd 1403 78bd aa85 00be
00000050: cc96 96bd 9239 e3bb cf2a 21be 0277 393e
00000060: 4872 d83b c743 f2bd 89ab 493e 4f91 c5bb
00000070: 59e3 1c3d 4eea d73d ab55 4dbe b879 6abe
00000080: fa8d 3bbc 5633 0abe 4dbe 77be ecc5 5e3e
00000090: 83f1 ab3e 71ca 063c 772c 683e f20c 993e
000000a0: da9c f23c b491 91bc 88df 533d 2c6b dabd
000000b0: 1c6a 843e c089 8b3d 30fd 32bd 8806 90bd
000000c0: f492 98bd 00a0 133e c7d3 073d b548 80be
000000d0: 3b82 fa3c 85cd 633e aa15 723c 14a2 29be
000000e0: 1ce7 7b3e 89fa 503e 5e45 063e d6f1 62bd
000000f0: 7a11 db3d a17f f73c 6830 2c3e e16a 17bd
00000100: a66c 42be 63f4 333e 44cb 7abe bd01 37bd
00000110: ce1a b4bd 4f4f 51bd c6f8 24be 814f 0fbe
00000120: 4a61 50be 7684 1fbe 1c0b 913e 2972 963d
00000130: 1bf9 013e 1fff bd3d 2936 46be 45b2 ce3b
00000140: 7ad4 c33d 3e6d b1be a3ae 84be c9d6 01be
00000150: cbc0 81bd e871 84be f54d 123e 0cf7 f0bd
00000160: aab0 673e 84a7 ec3d 94e5 92be 1ce3 b43e
00000170: d333 033d 6030 953d 86c9 6d3d 6eae 77bc
00000180: 6836 0cbc d607 c2bd 7bca 27be 8034 2c3e
00000190: f7a1 263d 878b 183d b26e b43d 7733 8bbe
000001a0: a7b3 283e f235 0bbe 2905 923e bba3 0cbd
000001b0: 046e 303e 591e 523e 98cc b4bd c953 d53c
000001c0: 6ec6 01be 9179 24be 2d9c 443e 2946 343e
000001d0: db14 3c3d f8d9 b93c 92d5 f73d 9c02 1c3d
000001e0: 51b1 833d 026e 89bc 77f5 603e cb3a 16be
000001f0: 2a94 72bd afd5 6fbe 1422 213e 83d7 45be
00000200: 6995 f4bd 0f8b 393e a72b 973d 9b71 51be
00000210: ffab 953c 2e4f b6bd d8d8 7d3c f0eb 97be
00000220: 35f1 38be d1b8 5d3e 5e34 2bbd dd56 2a3e
00000230: 2c33 d1bd 1253 dbbd 391a 5fbe d1ee 08be
00000240: 41a6 783b 8258 19be aa8c 5fbe b147 44bd
00000250: 29d1 2b3e 7c2e 2d3e 7580 f7bd 8a86 b43d
00000260: 520d 823e bd3c 06be 2d72 82bc 9d64 0cbe
00000270: 68d9 15bd 7a2e 033e c98c dabc 6e40 833e
00000280: 9636 41be 17a6 0abe c89d 363e 04dc 1c3e
00000290: 430b 0bbe 846f 963d b8ba 0cbe 8978 aa3d
000002a0: 3731 b73d 682c d5bd de5b 1ebe 8f50 5bbd
000002b0: ff5a 5fbc f04e d93d 9991 903d c880 4e3e
000002c0: 0704 9f3e f052 883e 4c63 11be 8409 4ebd
000002d0: 9950 003d 8d90 babd a3d9 89bc 098a 2f3e
000002e0: dbbf 81bc 6e30 87bd 8186 99be 0dd8 a7be
000002f0: 0883 503e 6a01 153c 48af 6fbe 795f 3ebe
00000300: 381e 2b3e 7b82 69be 609f 48be fc39 2cbd
00000310: d0e6 02be 3d6e 2b3d 1f9e 4ebd 5874 ddbd
00000320: 0f57 003d 03ca 263d 37f0 a13d 57b3 27be
00000330: 33ba 0e3e bda8 92be 06aa 363e 2c73 e2bc
00000340: e560 29bd 670c 3f3e 3dd1 7a3e ed00 eebd
00000350: 12d2 90be 0536 073e 820a 643d 6d99 6abe
00000360: 73f1 4ebe 0d07 8d3c 4e8f 2f3e 0b01 bdbd
00000370: aa3a 503e 4095 8dbd 1608 df3d 29ae 453e
00000380: 337d 573c ac0f 1ebd e353 febd 0de6 4fbe
00000390: a6ee 9fbd 976f 283e 6e35 3bbe b2ef 06bc
000003a0: 590f 0ebe 3874 423e 43a0 1f3e 9a3b 08bd
000003b0: 6911 373d d904 903e 61bf f33c e4be 263e
000003c0: 062e 263e 8eb8 6a3e ca6a 8fbd f8f0 2fbe
000003d0: 984d 733d 6646 413e eb53 623e 96ad 743e
000003e0: a263 513c 4852 5ebe 9bd4 a4be 7558 d9bb
000003f0: 890f 7b3e 9c08 e43c ed85 f93d f0b2 613e
-0.15841857 -0.00014815167 -0.051366787 -0.11328019 0.18455695 0.11570897 -0.0017714797 -0.1275938
0.16142876 -0.20255189 0.07812433 0.18404755 -0.04185732 0.04576902 -0.1736642 0.1808472
-0.2415845 -0.09723377 -0.06054981 -0.12550989 -0.07352981 -0.006934353 -0.15738986 0.18111804
0.0066054203 -0.11829334 0.19694342 -0.006029285 0.038302753 0.10542737 -0.20052211 -0.22897995
-0.011447424 -0.13496146 -0.24193688 0.21755189 0.33582696 0.008226977 0.22673212 0.2989269
0.029615808 -0.017769672 0.051726848 -0.10664973 0.25862205 0.06813383 -0.04369849 -0.07032496
-0.07449904 0.14416504 0.03316095 -0.2505547 0.030579677 0.22246368 0.014775673 -0.16565734
0.2459988 0.20408072 0.13112399 -0.055406414 0.10696693 0.030212225 0.1681534 -0.036967162
-0.18986759 0.17573695 -0.24491602 -0.044679392 -0.08794175 -0.051101025 -0.16110525 -0.13995172
-0.20349613 -0.15577874 0.28328788 0.07345993 0.12692682 0.09277176 -0.19356598 0.0063078725
0.09562011 -0.34653658 -0.25914487 -0.1267959 -0.063356005 -0.25868154 0.14287551 -0.117658705
0.22625986 0.115553886 -0.2869078 0.3532952 0.032031845 0.072846174 0.058053516 -0.015117271
-0.008557893 -0.09474151 -0.16385834 0.16816902 0.040681805 0.03724244 0.08810176 -0.27187702
0.16474782 -0.13594797 0.28519562 -0.034335833 0.17229468 0.20519389 -0.08828086 0.026040928
-0.12673351 -0.16061999 0.19200201 0.17604889 0.045918327 0.022686943 0.12101282 0.038088426
0.06430305 -0.016776089 0.21968637 -0.14670865 -0.05922333 -0.23421358 0.15735656 -0.19320492
-0.1194256 0.18119453 0.07381373 -0.20453493 0.01827049 -0.08901821 0.015493594 -0.29672194
-0.18060763 0.21652533 -0.041797988 0.16634698 -0.102148384 -0.10709204 -0.21787347 -0.13372351
0.0037940892 -0.1497517 -0.21831003 -0.047919933 0.16779007 0.16912264 -0.12085048 0.08814724
0.25400788 -0.13109107 -0.015923584 -0.13710256 -0.036584288 0.12810698 -0.02667846 0.25635093
-0.18868479 -0.13539921 0.17833626 0.15318304 -0.13578515 0.07345489 -0.13743103 0.083237715
0.08944934 -0.104088604 -0.15464732 -0.053543624 -0.013632535 0.10610759 0.070590205 0.20166314
0.3105776 0.26625776 -0.14198035 -0.050302044 0.031326864 -0.09109602 -0.01682741 0.171425
-0.015838554 -0.06601034 -0.2998543 -0.3278202 0.20362484 0.009094575 -0.23406708 -0.18591107
0.16710746 -0.2280368 -0.19592047 -0.042047486 -0.1278336 0.04185318 -0.050443765 -0.108132064
0.031333026 0.040719997 0.079071455 -0.16377006 0.13938217 -0.28644362 0.17838296 -0.027642809
-0.04135217 0.18657075 0.2449388 -0.1162127 -0.2828527 0.132042 0.055674084 -0.2291009
-0.20209293 0.017215276 0.1714451 -0.092287146 0.20334879 -0.06913233 0.10890214 0.19304718
0.013152408 -0.038589165 -0.12418344 -0.20302601 -0.078091905 0.16448818 -0.182821 -0.008235859
-0.13873042 0.18989646 0.15588479 -0.033259965 0.044694338 0.28128698 0.029754343 0.16283756
0.16228494 0.22921965 -0.0700279 -0.17181766 0.05940017 0.18874511 0.22102325 0.23894343
0.012780102 -0.21711075 -0.32193455 -0.0066328594 0.24517645 0.027836137 0.121837474 0.22040915

cells.1.gate_h.bias f4 [16]
00000000: 8e97 4fbd d96c 03be 7bdf 8dbd 679d e5bd
00000010: 5bb9 fb3d cdfb 1d3e bc60 b8bd 4e98 1abc
00000020: 670a abbd 3898 bf3d 9fc8 96bd fb16 853d
00000030: 9d2e 41be 284a ceb9 c276 bc3c f41e aebd
-0.050681643 -0.12834491 -0.06927391 -0.11211663 0.12291213 0.15428086 -0.090028256 -0.009435726
-0.083515935 0.09355205 -0.07362484 0.06498524 -0.18865438 -0.00039346633 0.023005847 -0.085019976

cells.2.gate_i.weight f4 [16, 16]
00000000: 3655 44be 6d71 fd3d 88c1 553e cc69 96bd
00000010: 4eed 13ba 43b3 263e 5ac7 98be e2c3 913d
00000020: 38f7 c93d 7298 eb3c 1da4 4a3e f53b f2bd
00000030: dd40 6abe b11d f3bd 80ec f83c 29f0 753e
00000040: 1906 b83c 2633 633d a22a cc3d 494c 8cbe
00000050: cb09 7dbe 3491 b1bd 59b8 63be 6372 87bd
00000060: 3386 40be 26d8 99bd fe43 7d3d 842d d2bd
00000070: f6bd 22be 5524 11be 2651 223e 7731 0abe
00000080: e743 503d af54 b8bd 6891 433e 1d36 453e
00000090: 0a26 223e 6ffe ba3d c8ad 693e a43b 5c3e
000000a0: f971 fb3d cb2d cebd 03f3 93be a57a 1fbe
000000b0: 28d7 c5bd 68b0 7d3d d114 11bd 9e81 2dbe
000000c0: 0e30 03be 3496 d03c 531a bf3c e58b e7bd
000000d0: 9c3a 5bbe 3ebf 3f3e 7abc 3cbe a796 883c
000000e0: d88a c4bd e869 0e3e e42e b0bd 7a55 b23c
000000f0: 5fb5 023e a103 20be 8b66 f1bd 2fae b63d
00000100: da6e 8fbe 668d ddbd 7b5e 223e bbd0 1bbd
00000110: 5abb 853e c125 eb3d 5371 19be ba8f 023e
00000120: eb41 f4bc f6a4 863d cbad b33e 28b2 863e
00000130: 9925 453d 41a6 84bd 7b57 b23c d005 25be
00000140: 9ad4 793d 25ba 463e b429 5a3d 4fc8 f53d
00000150: d3f0 6a3e b584 c23c 8f90 dabd 837a 823d
00000160: abdd 84be e157 c5bd 13bf fbbb afcc 283d
00000170: 3fad c7bd ad12 67bd 142c e0bd f6fd 743c
00000180: 1931 2dbe 2e98 febd 2410 2e3e 9523 19bd
00000190: 168d 23be c7fa e93d ae52 6abe 31ad 9ebe
000001a0: c3b5 5b3e 01f2 79be f59c 2bbd 7a9f cf3d
000001b0: 5343 06be afdc 893d f9e6 563c 4e02 5f3d
000001c0: e3ba 37bd 1582 6ebe 229e 003e ff33 40bd
000001d0: 0c2e a7be 669b 423e da5d d3bb 4164 dfbd
000001e0: fa92 68bd fa7e 233e 5dc8 173e e8a7 9a3e
000001f0: 025e 49bd 0e08 b73d a25d 6cbe 2687 af3d
00000200: 6227 9f3b e643 a9bd 63e0 7f3e f36b 2d3e
00000210: 2b33 683e eda4 6d3e 61c1 47be a51b 863e
00000220: 03d5 adbd 6440 81bd 9535 35bb 55e9 33be
00000230: 45bd 093d ea25 fa3c beed 263e 2f33 ecbc
00000240: 5b85 063e 8c39 323e 1423 523e 80fd 08be
00000250: 53a7 293c 888e 243d 5a2c 1a3e 59c9 25be
00000260: 1984 26be 0996 bf3d a1ee 9f3e 0e35 1d3e
00000270: e663 9bbc b886 683d 87a5 33be 2e4b 8cbd
00000280: d39b c73d 4ae6 ebbd 3008 dc3c 02ff c2bd
00000290: d202 623e bb06 bdbd 18c2 abbd 841e 6ebd
000002a0: 9c97 66be 254c 27be 6529 b6be 5dd8 8bbe
000002b0: a81a 363e 6094 843d 34be a63d b4aa 9bbd
000002c0: ed3c a93d 4df2 27be e7b5 3f3e 646d 0ebd
000002d0: 92e9 9dbc 0fc8 863d 8b6f 683e 895e 10bd
000002e0: 9b54 fdbd f7c6 643e a006 7dbc 7bbc 66be
000002f0: a3eb 57be 5127 1a3e 75a6 ce3d 65b4 cb3c
00000300: 023c 8d3d 811f 7d3e f7b6 64be 2471 febd
00000310: 60ee e8bd d26a 2a3e a988 f73d 6a80 e03d
00000320: a454 0d3e 844f 53be 16ea d53d aa32 6fbc
00000330: 2a98 803e 22e8 08be 791d 3c3d 8acd 3cbe
00000340: d403 27be b663 efbd 6292 b3bd fe1a 0ebe
00000350: 1a2b 283e 7e76 973d 3e43 3abe 38ab 633e
00000360: bed9 6a3e 2688 d0bd d624 a73c 60b3 da3d
00000370: 86fc c3bc 2bf0 103e 141c 563e f60e 20be
00000380: 81fc 5cbd e658 78bd 30d4 573e 7eff 14bd
00000390: 3846 debd 3620 643e 6bae aabd 5a34 87be
000003a0: 461b 713c 1ce0 213e 17be 263e c419 ba3d
000003b0: 4ce3 353e dda9 9fbe bc63 7ebe 261e c9bd
000003c0: 5b1a 0e3e c623 973e 8aaa 83be e6ab ffbd
000003d0: 14e5 523d 6432 003e befe cdbd 0650 89bd
000003e0: f4e0 9bbc 93a1 2dbe b5c5 d73d 50af f4bd
000003f0: 7689 823e 85d9 35bd dca3 3abe b077 86bd
-0.1917313 0.1237515 0.20874608 -0.07344398 -0.0005642966 0.1627932 -0.29839593 0.0711744
0.09861606 0.028759215 0.19789167 -0.11827842 -0.22876306 -0.118708976 0.03038621 0.24017395
0.022463845 0.0554687 0.09969069 -0.2740195 -0.24710767 -0.086702734 -0.22238292 -0.066136144
-0.18801193 -0.0751193 0.06183242 -0.10262588 -0.15892777 -0.14174016 0.15851268 -0.13495432
0.050846007 -0.09000527 0.19098437 0.19258924 0.15834823 0.091305606 0.22820199 0.21507126
0.12277598 -0.10067328 -0.2889634 -0.15574129 -0.096601784 0.061935812 -0.035420243 -0.16943976
-0.128113 0.025462247 0.023327982 -0.1130598 -0.21409076 0.18725297 -0.18431273 0.0166734
-0.09596795 0.13907588 -0.08602694 0.021769274 0.127645 -0.15626384 -0.11787137 0.08919942
-0.2801426 -0.10817985 0.15856354 -0.038040858 0.261195 0.1148181 -0.14984636 0.1275014
-0.029816588 0.065744326 0.3509353 0.26307797 0.04813156 -0.06477023 0.02177023 -0.16115499
0.06099377 0.19406946 0.053262427 0.120010965 0.2294343 0.02374492 -0.106721036 0.063710235
-0.2595037 -0.09635902 -0.00768269 0.041210826 -0.09749841 -0.056414295 -0.10945907 0.014953127
-0.1691326 -0.1243137 0.16998345 -0.03738745 -0.15971789 0.11424785 -0.22883102 -0.3099151
0.21456055 -0.24408723 -0.041897733 0.101378396 -0.1311162 0.06731545 0.013116592 0.054445557
-0.044855963 -0.2329181 0.12560323 -0.046924587 -0.32652318 0.19004592 -0.006450397 -0.10907794
-0.056780793 0.15966406 0.14822526 0.30206227 -0.04916192 0.08937083 -0.23082593 0.085706994
0.0048569897 -0.08264904 0.2498794 0.1693571 0.22675769 0.23207445 -0.19507362 0.26192966
-0.084878944 -0.0631111 -0.0027650346 -0.17569478 0.033627767 0.030535657 0.16301629 -0.028833
0.13136809 0.17404765 0.20521194 -0.13377953 0.010354835 0.04017499 0.15055981 -0.1619009
-0.16261329 0.09354789 0.31236747 0.1535227 -0.018968534 0.056769103 -0.17543612 -0.06850277
0.09746518 -0.115185335 0.026859373 -0.09521295 0.22071388 -0.09229799 -0.0838663 -0.05813457
-0.22518772 -0.1633764 -0.35578457 -0.2731351 0.17783606 0.06473613 0.08141747 -0.076009184
0.08263574 -0.16401024 0.18721734 -0.03477229 -0.019276414 0.06581127 0.226988 -0.035246406
-0.12369653 0.22341524 -0.015443474 -0.22532837 -0.21085982 0.1505406 0.10090343 0.024866292
0.06896211 0.24719049 -0.2233542 -0.124239236 -0.113735914 0.16642311 0.12086613 0.10961993
0.13801819 -0.20635802 0.10445039 -0.014599482 0.25116092 -0.13369802 0.045926545 -0.18437782
-0.16310054 -0.1168894 -0.08768155 -0.13877484 0.16422692 0.073956475 -0.18189713 0.22233284
0.22934625 -0.10182218 0.020403307 0.10678744 -0.023924123 0.14154117 0.20909148 -0.15630707
-0.053951744 -0.060631655 0.21077037 -0.03637647 -0.10853237 0.22277912 -0.08334049 -0.2640713
0.014715975 0.15808147 0.16283451 0.09086946 0.17762488 -0.31184283 -0.24842733 -0.098202035
0.13877241 0.2951948 -0.25716048 -0.12483959 0.051487997 0.12519222 -0.10058354 -0.067047164
-0.019028164 -0.16956167 0.105357565 -0.11947501 0.254955 -0.044396896 -0.1822657 -0.06565797

cells.2.gate_i.bias f4 [16]
00000000: 543d 0e3d e870 b53d e0e5 803c 2155 cebd
00000010: 7621 33bd bc2d 91be 1d16 7e3d a1c5 8fbe
00000020: 2701 66be 684b 48bd f94a 19be bc96 9ebd
00000030: 1c3f b43d f054 453d 3c39 36be 1b24 4d3d
0.034726456 0.08859426 0.015734613 -0.10074831 -0.043733083 -0.28355205 0.062032808 -0.28080466
-0.22461377 -0.048900038 -0.14970006 -0.07743594 0.088011 0.048176706 -0.1779527 0.05008326

cells.2.gate_s.weight f4 [16, 1]
00000000: caf3 4dbd ba4d 5c3e 6279 093e 6d95 f53e
00000010: ed7d c5be eec4 3abf e47a b1bd 06ca 50be
00000020: f204 16be 91de 37be 4934 83bd a4ed adbe
00000030: 1144 203e a46f b13e 2797 403e afb9 18be
-0.050281323 0.21514025 0.1342521 0.47965565 -0.38572636 -0.7295674 -0.08666018 -0.20389566
-0.14650324 -0.17955996 -0.06406457 -0.33970368 0.15650965 0.34655488 0.1880766 -0.14914583

cells.2.gate_s.bias f4 [16]
00000000: a17d f2be b4bd aa3e 4f8c fcbe 549a 3db9
00000010: 9d6b 15be 862d 5d3e 3cf8 46bf 7947 72bf
00000020: cb1c a23e 565d 37bf dfcc 52be 852c 22bf
00000030: 201b 063f f7f1 72bf 6766 c83e 0bea 423f
-0.47361472 0.33347857 -0.49325797 -0.00018081936 -0.14591832 0.21599397 -0.77722526 -0.9464031
0.31662592 -0.71626794 -0.20585965 -0.6334918 0.5238514 -0.9490046 0.39140627 0.7613837

cells.2.gate_h.weight f4 [16, 16]
00000000: aba7 c4be b2ad 39be b4e7 dd3d bb50 50bd
00000010: ec63 97bc ae91 0ebd 0119 2abc 143c 12bc
00000020: 996d 223d 610d 8b3d 0786 27be 2c70 2ebe
00000030: 80d4 5fbe ebd6 293e 5f39 f43d b837 4bbe
00000040: 5411 b0be f3ff 643e bf4a 533e 76c6 4bbe
00000050: c9d1 60be 46ce e73d 7f41 9bbe b58b 2b3e
00000060: b798 cf3c 93d1 273e 75d8 6c3d f406 183e
00000070: c23b 96be 1363 4f3e 9fa9 4fbd 9900 0dbd
00000080: d05b b83c 3299 90bd 2f4f 31bd 6af6 693e
00000090: b2be 4bbe 7742 1f3e 0f18 913e 80ea 103d
000000a0: f6d1 f93d 99d9 0bbe e0e1 0ebc 50b9 163d
000000b0: 0ca9 343b 5bb3 c63d b827 503e 25ba c03d
000000c0: 6a00 dd3d 6d29 33be 89f3 87bb 2ebd 22be
000000d0: a9dd 443e a195 4dbe 2442 7cbe 4261 8abe
000000e0: 985e 3bbe c5fc 813d c191 a03d d638 94bd
000000f0: db59 a2bd 1ff7 49bc 1350 0ebd e117 c63d
00000100: 1d85 65bd 9714 d4bd c534 8e3e c452 06be
00000110: f98a e33d 2f62 753c 236c b6bd 706a fa3d
00000120: 83dd 3d3e 233f e53d e462 303e 5657 b33a
00000130: 85f8 29be 769c 3ebe 5a25 5cbd bf13 8a3d
00000140: ad2a 3c3d 6123 a8bd cb21 543e 8ef8 053e
00000150: 5618 503c 50ff 1ebe 8034 863e 39d5 7d3e
00000160: 98a1 273d 0f31 113e 5fd0 283e e8c2 c0bd
00000170: 0850 5dbe 4171 fbbd 420d 52be 69e7 c9bb
00000180: 0ef4 4ebe 11c5 b9bd 041b 48be 1660 473d
00000190: 5bf1 b8bd be4d 16bd d1b3 49be 8ebc 64be
000001a0: 1130 e0bb f5ba c5bd c22d dcbd 93f3 583e
000001b0: 0e2e bf3d db08 643e f7ee 3e3d 06d7 0b3e
000001c0: d894 1dbe 068a 8a3e 4bc0 f53d 100a 033e
000001d0: a930 5f3e cdda 8b3e 5fba 48be d8e6 8c3d
000001e0: 9bd3 13be 9fc5 833e f250 d6bd 3dd4 173e
000001f0: 7d27 113d 7250 5e3d 4229 49be 536f d1bc
00000200: 940c fd3d 66a3 7c3e fc92 f63d 2a8a 283e
00000210: 435e 37be df41 10bd 729a 8b3d b008 b23c
00000220: 4c22 eebc 4476 05be b764 b93d 3b0f 553e
00000230: 8288 523e 2726 ecbd 5f7c 9c3d 3820 a83d
00000240: 0657 65be 7376 3fbe 6ba6 283e 81e8 e8bd
00000250: 5646 76bd fa64 94be 8232 90bc c679 85be
00000260: d047 573e 7d9e 30be a76d 55be f6ff 6abe
00000270: 5b6c 3d3e 55cd f83d 7abd 61be e677 6f3d
00000280: cdce c13d 40ca 9f3d 5351 923c c66a d7bd
00000290: cd3e b33d 009c c4bd 3740 af3e 91bd 3c3e
000002a0: 32d9 e63d 2aa0 7a3e b5fa fe3c ae52 04be
000002b0: c98f 61bd aeae d0bd b7ae 52bd 988d 8abe
000002c0: dafb d438 4266 28bd 072c 16be a67f 52be
000002d0: fccc 6dbe fdfd 573e 8a6a 3d3c 0d92 57bd
000002e0: f055 cfbc cf45 67be 9fd5 613d 97ac 9dbd
000002f0: 2ba9 1ebd 9759 5d3e 19e9 3ebe a425 97bd
00000300: e98a 91bd 067a ddbd a0f4 1e3e b2bc 6dbd
00000310: b369 953d 9518 fabb aed0 74be 08d5 533e
00000320: 1aa5 00be 60e4 473d f6c0 60be a259 fa3d
00000330: c0b1 2bbd a801 46bd a9d1 133d 45cc 36be
00000340: 83a9 d0bd e7e4 95be 21e0 8f3e 94bb 6bbb
00000350: 6187 dc3d 5874 57be d574 bcbd 0e60 4cbe
00000360: 847a 813e 8afc 533c ec94 5cbe 4c2b 01be
00000370: 6af5 613e f892 1c3e 4fdb b53d a48b bcbd
00000380: bfd6 75bd 1a6a ee3d 6e70 87bd 0f0c 283d
00000390: e2a0 44be 93e6 093d 0e65 233c 07ad d23d
000003a0: 64eb dc3d a3de 58be 10a5 7a3e 9b15 90bd
000003b0: ae46 c1bd 1d4e dbbd c054 63bc 33f7 ff3b
000003c0: f016 513e 558d dc3c eaa8 4cbe cb6e fb3d
000003d0: 4cfc 3f3e c183 b93c 083d 833e 39c0 be3d
000003e0: f9ab c2bd 74ff 07be 03a6 92bd 29f1 11be
000003f0: 4146 893e d3d0 8d3d c11f 963e fcdd 7bbc
-0.3840917 -0.18132666 0.108352095 -0.05085824 -0.018480264 -0.0348069 -0.010381938 -0.008925457
0.0396553 0.06789661 -0.16359721 -0.17034978 -0.21858406 0.16585891 0.11925005 -0.19845474
-0.3438822 0.22363262 0.20633982 -0.19899926 -0.21955027 0.113186404 -0.30323407 0.16752513
0.025341375 0.1638854 0.057823617 0.14846402 -0.29342467 0.20252638 -0.050698873 -0.034424398
0.022504717 -0.0706047 -0.043288406 0.22847906 -0.19896963 0.15552698 0.28338668 0.035379887
0.1219825 -0.13657226 -0.008720845 0.03679782 0.002756658 0.09702178 0.20327652 0.09410504
0.107910946 -0.17496271 -0.0041489047 -0.15892479 0.19225182 -0.2007661 -0.24634606 -0.27027327
-0.18297803 0.0634704 0.078403 -0.07237403 -0.07927295 -0.012326985 -0.034744333 0.09672523
-0.05603515 -0.1035549 0.27774635 -0.1311751 0.11110491 0.014977022 -0.08907344 0.122273326
0.18541531 0.11193683 0.17225224 0.0013682644 -0.16598709 -0.18614373 -0.05374656 0.067420475
0.045939136 -0.08209873 0.20716016 0.13083097 0.012701115 -0.15527081 0.2621193 0.24788369
0.040925592 0.1417887 0.16485737 -0.094121754 -0.21612561 -0.12277461 -0.2051287 -0.0061616194
-0.20210287 -0.090707906 -0.19541556 0.04867562 -0.0903041 -0.036695234 -0.19697501 -0.22337553
-0.0068416675 -0.096548 -0.10750915 0.21186666 0.09334956 0.22269003 0.046614613 0.13656244
-0.1538881 0.2705843 0.119995676 0.12796807 0.21795906 0.2731537 -0.19602345 0.068799675
-0.1443619 0.2573671 -0.10464658 0.14827056 0.03543805 0.054275937 -0.19644645 -0.025565779
0.12355915 0.24671707 0.12039754 0.16458955 -0.17907052 -0.03521907 0.068165675 0.021732658
-0.029069088 -0.13033396 0.09052413 0.20806591 0.20559886 -0.115307145 0.076409094 0.0820927
-0.22396478 -0.18697529 0.16469733 -0.113724716 -0.06012567 -0.2898329 -0.017602209 -0.26069468
0.21023488 -0.17247958 -0.2084261 -0.22949204 0.18498366 0.12148539 -0.22044936 0.058463953
0.09463272 0.07802248 0.017861044 -0.10518412 0.08752213 -0.09600067 0.3422868 0.18431689
0.112718955 0.2447516 0.031125406 -0.12922165 -0.055068765 -0.101895675 -0.051436152 -0.27061152
0.00010155859 -0.041113146 -0.14665233 -0.20556507 -0.23222727 0.21092983 0.011561045 -0.05262952
-0.025309533 -0.22585224 0.055135366 -0.076989345 -0.03873555 0.21616207 -0.18643607 -0.07380226
-0.07106573 -0.1081429 0.15523005 -0.058041282 0.07295551 -0.007632325 -0.2390773 0.20686734
-0.12562981 0.04880178 -0.21948609 0.12224127 -0.041917562 -0.048341423 0.03608862 -0.1785136
-0.10188582 -0.292762 0.28100684 -0.003596996 0.10768009 -0.21040475 -0.092019714 -0.19958517
0.25288785 0.012938628 -0.21541184 -0.12614173 0.22066274 0.15290439 0.088797204 -0.09206322
-0.06001925 0.11641331 -0.06613241 0.041027125 -0.19201997 0.03366716 0.009972824 0.102869086
0.10787085 -0.21178679 0.24477029 -0.07035371 -0.09437309 -0.10708258 -0.013875186 0.007811451
0.20418906 0.026922861 -0.1998631 0.122769915 0.18748587 0.022645833 0.256325 0.09314007
-0.095054574 -0.13281041 -0.071605705 -0.14252152 0.26811412 0.06924596 0.293211 -0.015372749

cells.2.gate_h.bias f4 [16]
00000000: 710c 5b3e 85c0 0bbe fa41 503d 65c1 c93d
00000010: 1f9c a63d cb76 383e b0e4 703d 56df 8e3d
00000020: eb9e 8cbc 0f01 a2bd 0fa6 2fbe 9151 013e
00000030: 00fa 4dbe ac95 803d 7696 de3d 2e96 a53d
0.21391465 -0.13647659 0.05084417 0.0985134 0.081352465 0.18014066 0.058811843 0.06976192
-0.017165622 -0.07910358 -0.1715319 0.12628771 -0.20114899 0.06278548 0.10868542 0.08085285

cells.3.gate_i.weight f4 [16, 16]
00000000: 965c e4bd f43a b8bd 7ece 74bd 1c59 aebe
00000010: b225 a5bc 5f67 573e fe40 133e 1d1c a23e
00000020: 336a 633d 6292 40bb 3172 443d 0397 a63e
00000030: a029 bbbc e4cd 4c3e 1433 f53d ab94 a83d
00000040: da00 7fbe cb3c 1ebd 6022 7ebd b547 4cbe
00000050: 922d cf3c 8668 4cbe 758f 4d3d 5cfa cfbd
00000060: e47b 19be 7993 733e 643a 2dbe a3cf 853d
00000070: 178e 4cbe 62e7 02be 9cb5 383e d6bb 81be
00000080: 0dad 9f3e cf89 52be 6f44 8ebd d7f0 b9bd
00000090: a0a4 473e 64df c7bd af47 303e ea15 5fbe
000000a0: 7f22 ea3d ba84 213e a7e2 363e 227c 9bbe
000000b0: 5fd0 573e a1d7 043d d2e1 243e 95ad bcbd
000000c0: b5b1 75bc 07d9 7d3b f5fe 453e 9d1c 45be
000000d0: eecc 1b3e 886e 853c bd79 6fbe 7c84 07be
000000e0: 67eb 21be f64c debd eaa3 15be 2ae9 cc3d
000000f0: 8dfe e5bd d2c7 f0bc 971d c83d 8571 34be
00000100: 6a03 363e 2d3a d53d fc50 283e ea07 803e
00000110: fa05 65be 4b6e eb3d ab39 6dbd ca9d 65be
00000120: 12a6 06bd 3fea 103d 7339 e53d a8ac 03be
00000130: 9f8c 613e 307b 86be 846e 683e e3c5 31bd
00000140: 3e90 193e 54a4 e4bc 62ed 713d 1eb6 afbd
00000150: 9523 9b3d e2ff 5d3e 03e8 9cbd 0cc9 c93d
00000160: d0df 9e3d 1f79 9a3d 0898 6b3e 9b62 833e
00000170: 86b8 ecbd 0028 f7bd c55a 933d 1644 eebc
00000180: 6bbd 92be 856f afbb 1709 cdbc bca3 b23d
00000190: e54e 013e 37d9 9f3d 0acf 1fbe 2fae 23be
000001a0: 97d1 3d3e 2f96 333e 15eb c3bd ed3c b8bd
000001b0: ed97 7ebe b04e 59be bcb9 c93d 35e3 d33d
000001c0: 553f 053c 8556 723e 2cb5 233d a6af 0abd
000001d0: 87f3 14be 0efa 9b3d 388d a93d 948a 68be
000001e0: 765e 8c3c 8ef2 a9bd f3a6 1d3d 18b8 5fbd
000001f0: d6d0 40be fc9b a33d 5f63 373b e4e1 48bc
00000200: 2ce1 503e 4dd5 40be 19bb 703e 0cf0 2d3c
00000210: c3f6 d5bd 8f15 4bbe c14d 6ebc df77 f23b
00000220: 3b15 48bd 7874 3ebe 536f 35bd 2c92 5dbd
00000230: 6400 083d afe7 68be 0bcc 7fbe 8587 87bd
00000240: 901b ae3d 1cda e93c 156d 9d3b 6352 42be
00000250: f749 6a3c 68ac f8bc 7903 063e d1c4 97be
00000260: 67c8 3a3e 5c28 ba3d dfab 0e3e 8b1c 16be
00000270: 6ee0 453e 4829 25bd 71d3 3f3e a0bd 66bd
00000280: 85b2 d3bb 0106 ef3d 9cb9 953d 34fb 02bd
00000290: 1e83 463d 5990 12be 3a38 8f3d c276 69be
000002a0: b4e8 44bc 8f1d 94be a56b 9bbe 839e b9bd
000002b0: 7a60 babd 567c 35be fab3 8a3c 2fe6 4a3d
000002c0: 894a b9bc e4b4 163e 0742 00be ec70 7bbd
000002d0: ae10 d83c 79e4 18bd d12b 5f3d db1b 8dbd
000002e0: e2a6 1b3e 7553 c13d 15f2 0bbe 863e 8abc
000002f0: 69e3 0a3e 0673 b6bd 040e 8e3e f299 813e
00000300: 198c 5d3d 95cf 3abe f1a1 bfbd 268f 033e
00000310: 537b 0c3e 5da6 95be e37a 05bd c1a3 733d
00000320: 83bb aebd 77dc 0a3e aed0 82be 4002 eabd
00000330: 1dfe 19be 143f 293e 3175 bc3e 466f b9bd
00000340: f3e8 d63d 0fec 883e 9571 9f3d 3c31 a9bc
00000350: a659 1b3c afc8 ad3d c867 18bd fb6a 633d
00000360: f33b 58bd 6abd 283e 4a20 933d 83cc 703e
00000370: fda1 19be 1e85 1ebe 6a4a 5c3e 09a6 413d
00000380: c181 4fbe b2e1 82be 5df5 c0bd 1477 1f3e
00000390: d6ed 4fbe 64c1 3f3e 74fa 23be aa03 4bbd
000003a0: 3da3 823e dd47 883d ec25 e93d af30 49be
000003b0: 5ca6 6fbd 2440 2dbe acf7 303e 2fa7 87bd
000003c0: e8e9 973d f45c 7cbd cb44 73be 5216 6fbb
000003d0: b5e3 2fbd 6f10 2cbe b84e 9f3e 3218 833e
000003e0: 20a4 b93d cd6d 4c3e 875e 4d3e 3d6e a0bd
000003f0: 0752 b8bd de50 813e ebd1 8bbd a1a1 213e
-0.11150472 -0.089956194 -0.05976724 -0.3405236 -0.020159576 0.21035527 0.14380261 0.31662074
0.0555212 -0.0029384126 0.047960464 0.32537088 -0.022846997 0.20000416 0.11972633 0.08231481
-0.24902669 -0.038632195 -0.0620445 -0.19949229 0.025290284 -0.19961748 0.05018564 -0.10155174
-0.14988667 0.23786725 -0.16916806 0.06533744 -0.19976078 -0.12783578 0.18038028 -0.2533862
0.31186715 -0.20560382 -0.069466464 -0.0907914 0.19496393 -0.09759405 0.17214845 -0.21785703
0.11432361 0.15773287 0.17859899 -0.30368143 0.21075581 0.032432202 0.16101769 -0.09212796
-0.014995982 0.0038734095 0.1933554 -0.19249196 0.15214893 0.016288057 -0.23386283 -0.13234133
-0.15812455 -0.10854523 -0.1461331 0.1000541 -0.11230192 -0.029392157 0.09771269 -0.1762143
0.1777474 0.10411487 0.16437143 0.25006038 -0.22365561 0.11495646 -0.057916325 -0.22423473
-0.03287322 0.035379644 0.11192598 -0.12858832 0.22026299 -0.2626586 0.22698408 -0.04340161
0.1499643 -0.027910389 0.059064277 -0.08579658 0.07575146 0.21679643 -0.0766144 0.098528
0.077575326 0.07542633 0.23007214 0.25661168 -0.115586326 -0.12068176 0.07195047 -0.0290852
-0.2866014 -0.0053538703 -0.025028748 0.08722636 0.12627752 0.07805102 -0.15606323 -0.15984415
0.18536983 0.17537759 -0.09566323 -0.08995996 -0.24862643 -0.21221423 0.09849879 0.10346071
0.008132775 0.23665817 0.0399677 -0.033858918 -0.14546023 0.076160535 0.082788885 -0.22709113
0.017134886 -0.08298217 0.038489293 -0.054618925 -0.18829665 0.07988736 0.0027982814 -0.012260888
0.20398396 -0.18831368 0.23508872 0.010616314 -0.10447457 -0.19832443 -0.014544905 0.0073995437
-0.048848372 -0.18599117 -0.04429562 -0.05409448 0.033203498 -0.2274463 -0.2498018 -0.06617645
0.08501351 0.028546385 0.0048042634 -0.1897674 0.014299861 -0.030355647 0.13087262 -0.29642347
0.1824051 0.09089729 0.13932751 -0.14659326 0.19323894 -0.040322572 0.18733002 -0.056333184
-0.00646049 0.11671067 0.07310793 -0.031977847 0.048464887 -0.14312877 0.06993146 -0.22799209
-0.012018371 -0.289288 -0.30355564 -0.09063437 -0.09100433 -0.17723212 0.016931523 0.049535926
-0.022618549 0.14717442 -0.12525187 -0.061386988 0.026375141 -0.037327264 0.054485146 -0.06890079
0.1520038 0.09439746 -0.13666566 -0.016875517 0.13563313 -0.08908658 0.27745068 0.25312763
0.054088686 -0.18243249 -0.0935706 0.12847576 0.1371892 -0.29228488 -0.032587897 0.05948234
-0.08531859 0.13560663 -0.25549835 -0.114262104 -0.15038343 0.16527969 0.3680816 -0.09054427
0.1049365 0.26742598 0.07785336 -0.02065336 0.009481823 0.08485543 -0.03720835 0.055521946
-0.052791547 0.16478506 0.07183893 0.23515515 -0.150032 -0.15480468 0.21512762 0.047277484
-0.20264341 -0.25562817 -0.09421799 0.15572768 -0.20305571 0.18726116 -0.16013509 -0.04956404
0.25515166 0.06654332 0.11384186 -0.19647478 -0.058508262 -0.16918999 0.1728198 -0.066236846
0.07417661 -0.061612085 -0.23756711 -0.003648181 -0.042941768 -0.16803144 0.31114745 0.25604397
0.090645075 0.1996376 0.2005559 -0.07833526 -0.090000205 0.2525701 -0.06827148 0.15784313

cells.3.gate_i.bias f4 [16]
00000000: b0f6 42be 6e1d 2a3e 5684 143e 2be6 66be
00000010: 842f e0bd cc7d 2c3c 1701 e5bc 9f56 0bbe
00000020: 7a6d ddbd ff86 903e 09bd f13d d1a9 5f3d
00000030: 161b d23d a5d2 debd 0096 2b3e 1039 1ebe
-0.19039416 0.16612789 0.14503607 -0.2254874 -0.10946563 0.010528039 -0.027954621 -0.13607262
-0.108118966 0.28227994 0.11803634 0.05460531 0.102590725 -0.10880021 0.16756439 -0.15451455

cells.3.gate_s.weight f4 [16, 1]
00000000: bbb0 0ebf b961 52bf 7588 ef3f f7a3 193f
00000010: db69 843f 1ab9 933f 3929 49bf d302 e23f
00000020: 95b4 9ebf f6dd 1d3f 201e 80bf 96f8 683f
00000030: 1b43 e6be 8184 773c 3cc8 5ebf 3ad9 7b3e
-0.5573842 -0.8218036 1.8713518 0.60015815 1.0344805 1.1540864 -0.78578526 1.7657112
-1.2398859 0.6166681 -1.0009193 0.9100431 -0.44973072 0.015107275 -0.87024283 0.24594584

cells.3.gate_s.bias f4 [16]
00000000: 6aaa 463f 81ad c23e 03ed 56bf db19 633e
00000010: 4d62 0ebf c7d7 493f a8f7 873e 1d18 9f3e
00000020: be72 0bbe dcd3 44bf 8825 54bf ea71 30bf
00000030: 1e6e 5fbf 8094 4b3f bd95 35bf c56c c73d
0.7760378 0.38022998 -0.839554 0.22177832 -0.55618745 0.78844875 0.26556134 0.31073084
-0.1361799 -0.7688577 -0.8286977 -0.6892382 -0.872774 0.7952347 -0.7093161 0.09737543

cells.3.gate_h.weight f4 [16, 16]
00000000: 4e12 07be 21bc c9be ce90 06be 22c7 8abe
00000010: b309 a4bd 694e d93d 827c 5abc adb2 85bd
00000020: 4890 773e 104a 7f3d ce14 fb3d 2b88 01bd
00000030: f284 183d 6e95 0b3e d440 df3d 2f30 e13d
00000040: bde2 ec3d b57b 883d eb99 4e3d d349 8abd
00000050: 0602 7abd c557 313e 1c21 72be 6a08 723e
00000060: 55bf 183e 624f a13d b3fe aebc 52dc 3c3d
00000070: fc3c ab3c 4117 c0bd 9fbb cbbd a414 023d
00000080: 5f6c 4f3e a330 793e 70e1 ee3d 6f6e e53d
00000090: 3723 b7bd ff91 633e 1051 093d 893f e0bc
000000a0: cd28 61be 2fb6 743e a5a6 6c3c a810 983d
000000b0: 4e71 c5bd 4c89 3a3d 0050 b83d 83bf ddbc
000000c0: 946f 3c3e e3f2 ad3d 3897 1ebe 2b9b fb3c
000000d0: 97e2 7cbe 6048 a73d 320e af3d 0dc1 4d3b
000000e0: 0e84 ee3d ffb7 0d3e 4afe 10be 50ce b5bd
000000f0: d7d5 2abe 1fd6 66be 16e1 4b3e a30b 10be
00000100: 5543 efbd 0298 64be c89b 4ebe e9a7 17be
00000110: 5685 7ebe a9fc 56be a729 123e d2a4 64bd
00000120: 779c 8d3e a011 033e 462e fcbd 16d7 04be
00000130: 1a71 a23d 9f64 1abe 84ce 6dbe db72 ebbd
00000140: aa0e 0b3e 95ea 62be 66b5 213e 2c1e a8bd
00000150: 19ce 673e ae1d 22be 97fa 21be e315 313e
00000160: c667 02be d0b4 a4bc f1ea 5fbe 61b9 043d
00000170: 8126 3a3e c2df 9ebc d644 07bd 6d4e bd3c
00000180: 9377 033e 9bb5 77be 592b 46be b0d3 e83d
00000190: da12 18be ec42 2a3e e361 3b3e 8524 27be
000001a0: b62e c1bc 5a06 583e adc1 d3bd e9d7 17be
000001b0: 130a 27be 8604 023d 46af 81be 33fb bebd
000001c0: 6c70 67be f9b9 3fbe 37a8 323e 8b02 333d
000001d0: 4125 c93d 5be3 88bc bbe9 b9bd bbf9 e53d
000001e0: e2bd 50be ae03 4abe 951e 8d3e 516e 05be
000001f0: b0c7 563d 1e1e b7bd a46d 05be 22c4 76be
00000200: 097a 063e 2f00 723e 2cd8 6f3d 0f22 273e
00000210: e0bb 063e c2fb e93d f771 a93d d8ff 7f3e
00000220: 95e5 46be 9f4b 463e ae51 56be 4791 1f3e
00000230: 406d 333d 2f8d e7bc ed67 47be 8f21 28bc
00000240: 83d4 4abc 152e 75bb be9b 8dbe cb34 933c
00000250: 030b 03be 55e9 723c 6162 bcbd 3b5b 873e
00000260: af18 98be 2bcf cc3d 27e3 c63c d2a1 0fbe
00000270: e4cf 5a3e e284 be3c b4e4 91be 76fa c0be
00000280: f977 8f3e fcef 113e e9bd 98be 6524 7a3c
00000290: 47ca a8bd 765a d5bd 015a 943d ee57 efbe
000002a0: a7cb 6cbd 871a 6dbe 9f79 d7bd 6a60 523e
000002b0: e9d2 ccbd 2a7e d43c 8077 acbd a03e 303d
000002c0: f085 5a3d 4da0 573e 3cf4 483c 917a bbbd
000002d0: 9019 87bd a2e5 2f3e 5c23 853e 782d 853e
000002e0: 0e63 703e 1b4e 1bbe 7a17 61be 925d e03d
000002f0: 4dc3 44be 6c9f 14bd 62b7 383d 4cde 4cbe
00000300: 0772 d8bd b68d 9f3d 43bb c4be 184b 01be
00000310: 8ec4 71be 4202 e6be 67aa 3ebd 9a4f 18bd
00000320: 8ab7 5c3d 5e3a 7cbe 649f 1d3f 85f7 09be
00000330: 54a8 b5bc 6869 5ebe e7ed 29bd 215c adbd
00000340: 9c99 d4bd 8fdb f5bc 1688 d03d 106b c33d
00000350: ee00 e33c 6d2a f83d 9a60 45be 3cf9 123e
00000360: 00cb 343e 8420 163e b75a a3be 6255 433d
00000370: d607 e2bd 9f35 1fbe 1708 243e 4cfc cbbd
00000380: 0847 7bbe 43b5 31be c0d2 97bd ab79 4ebe
00000390: c1c8 da3d 3f8c 3b3e a3ef 0fbc bc19 983e
000003a0: 06a7 963e db9e 613e 60ad c2bd cc0f 793e
000003b0: 5d7f 1dbd 6b5a e5bd 8ca7 f8bd 361a a8bd
000003c0: bd05 54be 067c a83d 9122 313d 401e 463e
000003d0: 2dd8 753e c604 1e3e 4b69 263e a091 933e
000003e0: ff7d f03d 09d9 dbbd 183e 75be ef23 51bd
000003f0: 15da cabd d038 3d3e 21cf 1e3e 28f1 1b3c
-0.13190576 -0.39401343 -0.13141176 -0.2710505 -0.080096625 0.10610659 -0.013335349 -0.0652822
0.24176133 0.06232649 0.122598276 -0.031624 0.03723616 0.13631222 0.10901037 0.109955184
0.115666844 0.0666422 0.050439756 -0.06752362 -0.061037086 0.17318638 -0.23645443 0.23636022
0.14916737 0.07876469 -0.021361684 0.04610855 0.020903103 -0.09379435 -0.09947895 0.031757966
0.20256184 0.2433496 0.116640925 0.11202704 -0.089422636 0.22223662 0.033524573 -0.027374046
-0.2198822 0.23897623 0.014444028 0.07425052 -0.09640752 0.045541093 0.08999634 -0.027068859
0.18401939 0.084935926 -0.15487373 0.030713638 -0.24695812 0.08168101 0.085476294 0.0031395585
0.11646281 0.1383972 -0.14159504 -0.088772416 -0.16683136 -0.22542618 0.19910082 -0.14066939
-0.116827644 -0.22323611 -0.20176613 -0.14810146 -0.24855551 -0.2099482 0.14273702 -0.055821247
0.27658436 0.12799692 -0.123135135 -0.12972674 0.07931729 -0.15077446 -0.2322331 -0.11496516
0.13579813 -0.22159798 0.15791854 -0.0820888 0.22637214 -0.15831634 -0.15818249 0.17293505
-0.12734899 -0.02010575 -0.21866967 0.032403354 0.1817875 -0.019393805 -0.03302463 0.023108685
0.12838583 -0.2419037 -0.19352473 0.11368501 -0.14850941 0.16627091 0.1829906 -0.16322525
-0.023581844 0.21096173 -0.10339675 -0.14828457 -0.16312437 0.031742595 -0.25329036 -0.09325256
-0.2260148 -0.18723287 0.17446981 0.043703597 0.09821559 -0.016709974 -0.09077784 0.11229273
-0.20384935 -0.19727966 0.27562395 -0.13030364 0.05243653 -0.08941291 -0.13030106 -0.24098256
0.1313249 0.23632883 0.058555767 0.16321586 0.13157606 0.11424972 0.0827369 0.2499994
-0.19423516 0.19364785 -0.20929596 0.15582763 0.04380536 -0.028265564 -0.19473238 -0.010261907
-0.012379768 -0.00374115 -0.27657884 0.01796951 -0.1279717 0.0148261385 -0.09198452 0.2643679
-0.29706332 0.10000452 0.024278237 -0.14026573 0.21368366 0.023256723 -0.284948 -0.37691087
0.2802122 0.14251703 -0.2983239 0.015267466 -0.08241706 -0.10417645 0.072437294 -0.46746773
-0.057811406 -0.2315465 -0.10521244 0.20544592 -0.100011654 0.025939066 -0.0842123 0.043028474
0.05335039 0.21057244 0.012265261 -0.09154237 -0.065966725 0.17177442 0.2600354 0.26011252
0.23475286 -0.15166514 -0.21981612 0.10955347 -0.19215126 -0.03628485 0.045096762 -0.20006675
-0.10568624 0.07790701 -0.3842412 -0.12626302 -0.23610136 -0.44923598 -0.046549227 -0.03718529
0.053885974 -0.2463164 0.61571336 -0.13473327 -0.022174992 -0.21719897 -0.041486647 -0.08464838
-0.10380861 -0.03001192 0.10182206 0.09541905 0.027710404 0.12117467 -0.19275132 0.14352888
0.17655563 0.14660841 -0.31905147 0.04768885 -0.11036651 -0.15547799 0.16018711 -0.09960231
-0.24538815 -0.17354302 -0.07413244 -0.201636 0.10682822 0.18315218 -0.008785161 0.29707134
0.29424304 0.22033255 -0.09505725 0.24322432 -0.03845154 -0.111988865 -0.12141332 -0.08208124
-0.20705314 0.082267806 0.043245856 0.19347477 0.24008246 0.15431508 0.16251104 0.2882204
0.11742782 -0.107347555 -0.23949468 -0.05105966 -0.09904877 0.18478703 0.15508701 0.009517945

cells.3.gate_h.bias f4 [16]
00000000: 77e0 603b 6790 3fbe 9f5c 29be 63e9 88bd
00000010: 7011 d33d a6a0 ecba 0fad 68be f804 903d
00000020: 8f5c 02be 500e 363e c935 0f3b b7a9 a43d
00000030: c551 0b3e d7ba d7bd e0b8 233e abe2 fe3b
0.003431348 -0.18707429 -0.16539238 -0.0668514 0.1030606 -0.0018053248 -0.22722267 0.07032198
-0.12730621 0.17778897 0.0021852127 0.08040183 0.13605411 -0.10533684 0.15988493 0.007778486
