SRNN/gridsearch/vrnn_s/model_state_dict.pt (torch, 10384 bytes, 17 tensors)

weight_ih_l0 f4 [16, 1]
000000 56 af a5 be ca 77 72 be 85 40 73 3e df 02 dc 3e
       -0.32360333 -0.23678508 0.23755081 0.4297094
000010 fc c9 c9 3e a0 cf 86 be d2 f9 a9 3d f0 da 83 3d
       0.39411914 -0.2633028 0.082996026 0.064382434
000020 52 d9 d5 3d f6 56 8e 3e 99 63 55 3e 95 c2 b3 3e
       0.10441841 0.2780072 0.20838775 0.35109392
000030 bf 32 c6 3e 02 87 b4 3e ed 4b 8a 3c 04 4e db 3e
       0.3871059 0.35259253 0.016881907 0.4283296

weight_hh_l0 f4 [16, 16]
000000 bb 36 89 be 93 9c dd 3d d0 b8 14 3d 98 c7 db bd
       -0.2679957 0.1082088 0.036309063 -0.10731429
000010 92 67 20 be df fe 47 bd 9b ab 5f be 9b c7 83 3d
       -0.15664509 -0.04882705 -0.21842806 0.06434556
000020 1c c4 45 3e e4 42 97 3e 6c 1f f3 3d 98 b1 2a be
       0.19313091 0.2954322 0.118712276 -0.16669309
000030 69 79 5b 3e bf 9f 8f 3d 7f 09 5a 3e 83 f1 dd bd
       0.21433033 0.07012891 0.21292685 -0.1083708
000040 36 19 4e bd 4a e1 66 be be 99 01 be 59 43 00 be
       -0.05031701 -0.22546878 -0.12656304 -0.12525691
000050 01 8c 92 bd f9 d8 f2 bd 0f a1 a1 3d de 05 1c be
       -0.0715561 -0.118577905 0.078920476 -0.15236613
000060 1c 72 63 3e cb 35 1a 3d af ee 7a be d6 f4 49 bd
       0.22211498 0.037648957 -0.24505113 -0.04930576
000070 bf 4c b1 3d 26 2b a6 bc 5f 53 5b be 3e 23 9b be
       0.08657216 -0.020284247 -0.21418522 -0.30300325
000080 b2 6a 1e be fd 01 60 3e 35 89 18 be ad 6c 0d bd
       -0.15470389 0.21875758 -0.1489609 -0.03452747
000090 e3 af 2b bd 0b f0 9f be d9 d5 5c 3d d9 46 de bb
       -0.041915786 -0.31237826 0.05391488 -0.006783348
0000a0 9f fe 7a 3d c7 b8 15 be 9d 02 db 3d 44 f4 8d 3d
       0.06127798 -0.14621268 0.10693858 0.069313556
0000b0 c9 20 df bc 22 2f 36 3e 88 ec 68 be 4c f4 0c 3e
       -0.027237313 0.17791417 -0.2274648 0.13765067
0000c0 f7 de 0a be 43 14 24 3a 14 70 36 3e 03 5e aa bd
       -0.13561617 0.0006259123 0.17816192 -0.083187126
0000d0 1a ca 8e bc 7c 99 a1 bd 12 c7 1e bd 06 01 c6 3c
       -0.017430354 -0.07890603 -0.038764067 0.02417041
0000e0 d4 0a 0b be da 65 4e 3e b2 e8 02 3e 00 0c 7f 3e
       -0.1357835 0.20156041 0.12784079 0.24906921
0000f0 b9 77 01 bc df e9 26 3e f6 ba 82 bc 92 4e bb 3c
       -0.007902079 0.16300152 -0.01595829 0.022864614
000100 4b 7c ec 3d 49 ad 81 3e d3 53 a6 3d 27 91 93 3e
       0.115471445 0.2532752 0.08121457 0.2882168
000110 b5 f6 07 be bc 33 8d be 3d fd 83 be 68 64 ed 3d
       -0.13277705 -0.27578533 -0.25779143 0.115914166
000120 27 f1 9f bd c4 79 01 be 88 80 bd 3d db 0b 18 be
       -0.07809668 -0.12644106 0.09253031 -0.14848273
000130 29 a8 83 3e 01 93 05 be fc b5 6d 3c c1 d3 d0 bd
       0.25714234 -0.13044359 0.0145087205 -0.10196639
000140 a0 9c 67 3e aa 9e c8 3d c4 f8 a4 3d a0 04 0d be
       0.22618341 0.09795888 0.08055261 -0.13771296
000150 ba 41 0d be d8 22 ef 3d f1 81 84 bd 14 93 a9 bd
       -0.13794604 0.11676568 -0.06470097 -0.08280006
000160 92 4b 36 bd 7e ed a3 bd 51 23 2c 3d 2b 46 4f 3e
       -0.044505663 -0.080042824 0.042025868 0.2024161
000170 18 9d c9 3d eb d8 4f be 0f 44 4b be 0d 15 86 be
       0.098444164 -0.20297591 -0.19850181 -0.26187935
000180 a2 b3 fb 3d 64 43 75 be 2d 7b 83 3e 67 09 7f 3d
       0.122901216 -0.23951489 0.25679913 0.062264826
000190 91 23 47 be 17 dd 27 bd 9a 66 3f bc d6 85 04 b9
       -0.19447161 -0.040982332 -0.011682177 -0.00012638359
0001a0 e7 95 8e b9 90 16 3c be fd 2b 54 be 43 bf 32 3e
       -0.00027196037 -0.18367982 -0.20719905 0.17455773
0001b0 c6 ff 9f bd ef 18 46 bd 45 51 30 3e fa 26 1b be
       -0.07812457 -0.048363622 0.17218502 -0.15151587
0001c0 5f 0e 83 3e 1f 06 c3 bd b4 4c 25 be 45 ac 66 be
       0.25596902 -0.09522652 -0.16142541 -0.22526653
0001d0 c7 39 c2 3d 15 fd d9 3d 0c f9 b2 bd 82 a8 6e be
       0.094836764 0.10643975 -0.08738908 -0.23306468
0001e0 f3 66 9e 3d ef 6b a6 3e ab d2 f2 3d 95 76 fc 3d
       0.0773448 0.32504222 0.11856588 0.12327305
0001f0 e7 32 5c be a2 3e 22 3e 2a a1 7a 3e d2 54 d0 3b
       -0.21503793 0.15844205 0.24475542 0.0063577676
000200 c0 1f 5e 3e 3c 17 a6 3e 64 2a 02 be 58 dd e6 3d
       0.21691799 0.324396 -0.12711483 0.11272687
000210 07 db 0c 3d 72 0e ac bd dd bb 25 3d 16 2a ba 3c
       0.03438857 -0.08401193 0.040462364 0.022725146
000220 75 23 4b 3c 7f dc 88 3e 12 7c 5f 3e b6 10 e7 3c
       0.01239859 0.26730725 0.21824673 0.02820621
000230 2a a3 4f be 0d c2 46 be 8b 1e c2 3d ae f1 09 be
       -0.20277086 -0.19409962 0.09478482 -0.134711
000240 93 c9 99 be c8 6c be bd 85 76 28 3e d1 cb 7a 3e
       -0.300366 -0.09298092 0.16451462 0.24491812
000250 57 c8 16 be 17 0c 59 bd 79 e1 1d 3e 28 07 f4 3d
       -0.14724861 -0.052990045 0.15418042 0.119154274
000260 04 0d b9 be 56 46 09 3e 58 7e cb bd 36 9d 7a bd
       -0.36142743 0.13405737 -0.099362075 -0.061185084
000270 40 69 aa 3c 46 4e 57 3d 7f 01 12 3d de a2 9e 3d
       0.02080214 0.05256488 0.035645958 0.07745908
000280 be f3 54 3d a3 42 94 bc 87 84 03 3d 46 bf aa bc
       0.051990263 -0.018098181 0.03210881 -0.02084316
000290 55 72 1a be c1 1e 1b 3e 05 df 5d bd 54 83 0c 3c
       -0.15082677 0.1514845 -0.054167766 0.008576233
0002a0 2e 98 a4 3b b8 b3 e2 bd f0 5b aa bd a4 59 e4 bc
       0.005023024 -0.11069435 -0.08318317 -0.027874775
0002b0 79 d8 41 be ed 79 ea 3d 1c 73 0d bd 83 e6 20 3e
       -0.18930234 0.11449037 -0.034533605 0.15712933
0002c0 c7 07 f4 3b 40 b3 43 be 5b fe 47 3e f6 fa f5 bd
       0.007447216 -0.19111347 0.19530623 -0.120107576
0002d0 8f dd 2e be 87 34 a5 3c c2 35 21 3c 95 c2 aa bd
       -0.17076705 0.020166649 0.009839477 -0.08337895
0002e0 9a bb 85 3d 26 f5 4b be 8f 03 ba 3d 30 d6 16 3e
       0.06529923 -0.19917735 0.0908271 0.14730144
0002f0 60 e2 c4 3d 38 11 b0 3d ab 47 55 bd 29 4f 2c be
       0.0961349 0.08597034 -0.0520703 -0.16827072
000300 0e aa 77 3d 89 a0 fb 3d 08 62 49 be f2 c3 35 3e
       0.06046491 0.12286479 -0.19666302 0.17750528
000310 67 ec 55 3e 45 0c 8f bd bd 75 60 be 32 4d 34 3e
       0.20890962 -0.06984762 -0.21919914 0.17607573
000320 9a b1 58 3e 94 40 6f be a0 e2 99 be ee 1f 22 be
       0.211615 -0.23364478 -0.30055714 -0.15832493
000330 b7 f5 7c be 31 f6 74 be f1 d5 b6 3c 20 7b 09 3d
       -0.24703108 -0.2392204 0.022318812 0.033564687
000340 30 26 d0 3c a7 62 73 3e 03 98 1b be b3 b0 62 3e
       0.025408834 0.23768102 -0.15194707 0.22137718
000350 91 62 a3 3d ca 7d 35 3e 9d a5 10 3e bb 17 36 be
       0.079777844 0.17723766 0.14125676 -0.1778249
000360 cd 07 82 bd 09 48 3c be 14 df d7 3d 5a cd f6 bd
       -0.06349144 -0.18386854 0.10540596 -0.120508865
000370 d5 84 cd bc 14 29 d4 3c aa f2 74 bd 79 8c 3c be
       -0.025087753 0.025898494 -0.059801735 -0.18412961
000380 3c fd c0 bd a7 13 8f 3e bf d4 f5 bc 69 75 24 3e
       -0.094233006 0.2794468 -0.030008672 0.16060413
000390 e5 2b 91 bd d1 09 c4 bc 6d 0b 74 3e 61 a1 05 bc
       -0.0708845 -0.023930462 0.23832484 -0.0081561515
0003a0 d0 24 45 be 26 53 cb 3d 33 b9 48 3d 4a 54 03 be
       -0.19252324 0.09927969 0.049004745 -0.12825122
0003b0 d7 2c a5 bd 6f 84 66 be 41 e4 c9 3c 27 d1 68 be
       -0.08065193 -0.22511457 0.024644973 -0.22736035
0003c0 b5 fa a3 3c e9 c4 54 3e b7 48 44 3e b4 8d 9a 3b
       0.020017007 0.2077824 0.19168364 0.0047165994
0003d0 c5 40 26 bd 23 90 78 3d b0 54 cd 3d ea 97 06 be
       -0.040589113 0.060684334 0.100259185 -0.13143888
0003e0 3e 8b 8b bd e4 b2 17 3e 75 9d 5b be 70 4b 8e 3e
       -0.06813668 0.14814335 -0.21446784 0.2779193
0003f0 74 61 9b 3d 71 fa 6a 3d 8c 4f 1e 3e e4 1a 58 be
       0.07586947 0.057367746 0.15460032 -0.21104008

bias_ih_l0 f4 [16]
000000 d3 e1 ef bd 3a 42 22 3e 74 66 70 be af b7 1e bd
       -0.117129944 0.15845576 -0.23476583 -0.038749393
000010 dc 22 4a 3d da 43 21 3e 28 41 1d bc 62 7e 01 be
       0.04934965 0.1574854 -0.009598054 -0.12645867
000020 11 34 a5 3d b7 c0 3c bd 5e 83 16 3d f0 c9 44 be
       0.080665715 -0.046082225 0.036746375 -0.19217658
000030 97 71 de bd db 48 ba bc 53 dc 22 3e db fa c6 bd
       -0.10861509 -0.022739818 0.1590436 -0.09715816

bias_hh_l0 f4 [16]
000000 e6 e5 63 3e f6 ba fc bd 47 31 c5 bd 18 01 31 be
       0.22255668 -0.123403475 -0.096285395 -0.17285573
000010 cd 22 4f be 42 53 46 bc 9d 11 99 3c 96 ba c9 bd
       -0.20228119 -0.012104811 0.018685156 -0.098500416
000020 b5 10 da bd f1 c6 2a 3e 58 7d 18 be 53 78 34 3e
       -0.10647718 0.16677453 -0.14891565 0.17624025
000030 b3 9c b5 3c 7f cf 84 3c da dd ad bd 63 2b 60 3e
       0.022169447 0.016212223 -0.084895805 0.2189155

weight_ih_l1 f4 [16, 16]
000000 7a f4 5e 3d c7 5e b3 3e 40 ce 7e be 30 a6 69 be
       0.05443237 0.35033247 -0.24883366 -0.22817302
000010 33 6f 95 3d 5a 88 0b 3e 22 6f d7 3b 56 a7 93 bc
       0.072966 0.13626233 0.0065745274 -0.018024128
000020 f4 db 83 be f7 d4 9e be 78 5d 8e be 12 1c 1f be
       -0.25753748 -0.31021854 -0.27805686 -0.15538052
000030 e4 b0 b0 be 14 cf a8 be 05 b5 5f be 3d ff 27 be
       -0.34509957 -0.32970488 -0.21846397 -0.1640596
000040 56 5f 99 3d e0 63 23 3e f6 b3 3b bc 28 91 cb be
       0.07488887 0.15956068 -0.01145648 -0.39759183
000050 4e 06 a9 be dc 8d a9 3e f8 05 ab bc 52 7e 96 bd
       -0.33012623 0.33116043 -0.02087687 -0.073483124
000060 69 24 4c be c5 6e 59 be 80 b7 d0 bd e6 22 a4 be
       -0.19935764 -0.21233661 -0.1019125 -0.32057875
000070 51 c0 13 be 72 6f ee 3d 14 29 62 3e 57 ad 59 be
       -0.14428832 0.1164235 0.22085983 -0.2125753
000080 43 14 a6 3e e3 29 34 be 87 79 b7 bc 30 2e 15 be
       0.32437333 -0.17594104 -0.022396816 -0.145684
000090 ca fd c7 3d dc fb 51 be 7e 41 06 3e 4d 9f 4d 3e
       0.09765203 -0.20506233 0.13110921 0.200803
0000a0 d7 f9 39 3e f6 82 eb 3d ab 9d 94 be dc a6 f3 3d
       0.18161713 0.11499588 -0.2902654 0.1189706
0000b0 71 05 86 3d 5b 80 7a 3d d6 52 1b 3e a5 2a 8f be
       0.065440066 0.061157566 0.15168318 -0.27962223
0000c0 f8 cc ef 3d 7c a3 b8 3e 28 8e 81 be 7d 4d c2 bd
       0.117090166 0.3606223 -0.2530377 -0.09487436
0000d0 5d 20 25 bd 31 27 a9 3d 06 0e 96 3e c1 0a 41 be
       -0.040314067 0.08259428 0.29307574 -0.18851759
0000e0 75 1f f4 bd bb 2a 10 be d2 46 10 3e 10 86 4d be
       -0.119200625 -0.140788 0.14089516 -0.20070672
0000f0 70 ff cb be 9e eb 9a be dd 79 5a 3e f3 70 7b be
       -0.3984332 -0.30257887 0.2133555 -0.24554805
000100 a1 24 5c 3e 67 9d ce bd b0 c9 61 3e fb 96 94 bd
       0.21498348 -0.10088616 0.22049594 -0.0725536
000110 c6 89 41 3e ce 9e 04 bd 65 95 9c 3d 4a e6 65 3e
       0.18900213 -0.03237801 0.07645682 0.2245113
000120 8e 44 89 3d 1f 35 bb 3c d0 ea 2e 3d ad 50 42 3e
       0.06702529 0.022852479 0.042704403 0.18976088
000130 2e fe 2a be a5 90 ea 3d b3 ab 28 3e a8 1b 6c bd
       -0.16698524 0.1145337 0.16471748 -0.057643563
000140 3f 34 a9 bc 34 a0 1e be c1 62 64 3e 94 25 91 3e
       -0.020654796 -0.154908 0.22303297 0.28348982
000150 78 6f 83 3e 56 5f 2f be 56 43 42 3d ba b8 2d be
       0.2567098 -0.17126212 0.047427498 -0.16964999
000160 aa 34 23 3e 0a 5e 67 3e 96 b5 26 bd 3d 0b 4b 3d
       0.15938058 0.22594467 -0.040700518 0.049571265
000170 d8 05 98 bd 1a 52 a3 3d 3f 10 89 3d 37 58 42 3e
       -0.074229896 0.07974644 0.06692552 0.18978964
000180 e5 2d 67 be a7 a7 98 be 8c c9 b0 3d fd 5c e7 3d
       -0.22576101 -0.2981541 0.08632192 0.11297033
000190 97 c8 2d 3e 80 73 15 bf f2 c0 f2 3d e9 58 2d bd
       0.1697105 -0.58379364 0.11853208 -0.04232112
0001a0 8e 72 43 be 50 10 ab 3d 7d 97 09 3e 37 33 82 bd
       -0.19086668 0.08352721 0.13436694 -0.06357425
0001b0 95 8a b7 3e cc c0 85 3e ae 2e bf 3c 64 59 cb 3d
       0.35847917 0.26123655 0.023337688 0.09929159
0001c0 b9 2e 5c be 2c 36 51 bc eb 8a c2 3d f0 41 48 3e
       -0.21502198 -0.012769263 0.09499153 0.19556403
0001d0 c5 f0 44 bd 5e 12 4f be be 4a 23 be c7 f9 8e 3e
       -0.04808118 -0.2022185 -0.1594648 0.2792494
0001e0 27 16 0d 3e a5 98 1e 3d 36 0c 4c 3e 26 16 0e 3e
       0.13777982 0.038719792 0.19926533 0.13875636
0001f0 79 25 c2 3e 02 66 9b 3e 62 13 5c 3e 9f 51 51 3d
       0.37919214 0.30351263 0.21491769 0.05110323
000200 a3 17 1c bd a1 4f a4 3e 1b 50 01 3e 89 ad 7d be
       -0.03810848 0.32092002 0.12628214 -0.2477323
000210 8a 3d bc be 20 48 74 3e 29 ab c5 3d a6 c9 4d 3d
       -0.367657 0.23855639 0.09651787 0.050241135
000220 70 d2 8c 3e 91 30 2a 3e 94 78 27 3d a1 bb 41 be
       0.275043 0.16620089 0.040886477 -0.18919231
000230 60 44 dc be 44 0a 91 3d 3b 98 c3 bd 1d 02 71 be
       -0.43020916 0.07082036 -0.0955052 -0.23535962
000240 3a fd b8 3d cc 4b b9 3d 36 1e 8e 3d e5 35 75 be
       0.09032674 0.0904766 0.06939356 -0.2394634
000250 e6 2b 18 bc 26 28 49 3e 27 6f 8f bd a0 92 4f be
       -0.00928781 0.19644222 -0.070036225 -0.20270777
000260 08 c0 3c be e8 37 d0 3d 63 46 12 3e c6 ce 2a be
       -0.18432629 0.10166913 0.14284663 -0.1668044
000270 be 59 09 3e 64 e7 87 bd 02 72 2e 3e 1a 4b 19 be
       0.1341314 -0.06635931 0.17035678 -0.14970055
000280 30 8d 80 bd 5f 88 6c 3d e5 ea 8c 3d a0 4b 28 bd
       -0.062769294 0.05774724 0.0688074 -0.041087747
000290 df a9 83 3e d7 6a 0f 3e f1 8c 81 bd 3b 1d d6 bc
       0.2571554 0.140056 -0.063257106 -0.026136985
0002a0 9a bc eb 3d 22 09 11 be 28 53 2f be 29 28 00 3e
       0.11510582 -0.1416364 -0.17121565 0.1251532
0002b0 18 74 42 bd fd a4 47 be 39 12 83 be 8a 87 79 bc
       -0.047473997 -0.19496532 -0.2559984 -0.015230069
0002c0 c6 99 60 3e 5d 58 5a 3d e6 9a 12 3d a7 fa f8 3d
       0.2193366 0.053306926 0.035792254 0.12157183
0002d0 c8 67 4d 3d b5 3c 17 3e 82 45 71 be 31 c7 62 3e
       0.0501478 0.14769252 -0.23561671 0.22146298
0002e0 1c 0e ab bd a1 75 7c bd f4 2c cd bd e4 68 22 bd
       -0.083523005 -0.061635617 -0.1001834 -0.039650813
0002f0 71 af ea 3d 10 65 fd 3d 37 94 55 3c d5 21 d6 bd
       0.11459244 0.12372792 0.013035825 -0.10455672
000300 c7 f8 eb bd 6b 72 0b be fc 41 5b 3e 7c 7b 40 3e
       -0.1152206 -0.13617866 0.2141189 0.18797106
000310 cb 94 44 3e be 30 9c bc 8a a9 de 3d 31 f9 e3 3c
       0.19197385 -0.01906621 0.10872181 0.027828785
000320 c4 c1 5d bd 21 9b 8d bc 2e ba 05 3e 94 8b 38 be
       -0.054139867 -0.017285885 0.13059303 -0.18021995
000330 9e 4a 2c bd 94 71 95 be 30 ed 0f 3e d2 4f 3d be
       -0.042063348 -0.29188216 0.14055324 -0.1848748
000340 96 84 27 3d 27 92 3a bd 77 17 18 3d 10 92 bd 3e
       0.04089793 -0.045549538 0.037131753 0.370255
000350 46 da 5a 3e 8b 73 2d be b5 7e ee 3d 0b 69 52 be
       0.21372327 -0.16938607 0.11645261 -0.20547883
000360 97 a7 3b bc 7d 5b bb 3d 36 4f db 3d 2b 90 e6 3d
       -0.011453531 0.091483094 0.10708468 0.112579666
000370 5f 20 98 3e 94 d3 95 3d 2d b5 42 3d 7e 07 b3 3e
       0.29712197 0.07315746 0.047536064 0.34966654
000380 79 46 98 be 46 6f 1d 3e 99 90 f7 3c 4d 2d 00 3e
       -0.29741266 0.15374479 0.030220317 0.12517281
000390 37 57 83 3e 69 a1 f5 3c 8c ff 13 3b ec 1f c5 3d
       0.25652477 0.029984193 0.0022582738 0.09625229
0003a0 98 7e 3f be d8 1a 6d 3e 54 bb cb 3d 45 46 21 3e
       -0.18700635 0.23154771 0.099478394 0.15749462
0003b0 cb 96 de bd 3b 8e a9 3d 3c 9d 81 be 17 b8 5d bd
       -0.10868605 0.082790814 -0.25315273 -0.05413064
0003c0 ab 71 f3 bc 6c 81 92 bd e5 ed 72 be 86 71 a0 3d
       -0.029717287 -0.071535915 -0.23723562 0.07834153
0003d0 e2 2a 6e be 4f e6 d6 bd 67 b0 10 bd c4 14 b8 3d
       -0.23258546 -0.10493147 -0.03532448 0.08988336
0003e0 2b 12 a2 bb 88 43 a5 bd 83 62 5f 3b 36 2e 31 3e
       -0.0049460134 -0.08069521 0.0034085817 0.17302784
0003f0 58 37 f6 bd 6b e6 2c be 21 a8 ac bd d0 3a 23 3c
       -0.12022275 -0.16884772 -0.084305055 0.009962752

weight_hh_l1 f4 [16, 16]
000000 c5 92 80 3d 83 24 5c 3e 27 24 25 3d a6 f5 0d bd
       0.06277994 0.21498303 0.04031768 -0.034658097
000010 a3 c0 82 3e 4f ba 43 be d4 e6 94 3e f9 e9 0f 3d
       0.25537595 -0.1911404 0.29082358 0.035135243
000020 ee ff 91 be dc 33 07 be 35 27 87 bd 1a 76 dd bd
       -0.2851557 -0.13203377 -0.06599275 -0.10813542
000030 60 b6 e5 bc 4f fe 91 bd 9a d3 3a 3e ba 4d e3 bd
       -0.028041065 -0.07128584 0.18244782 -0.110988095
000040 97 58 57 be 16 dd af ba f4 de 5c bd 04 f8 ca bd
       -0.21029888 -0.0013417329 -0.053923562 -0.099105865
000050 7a 52 82 3d a6 03 f2 3b 3d 55 1a be 1d 0d 9a bd
       0.063633874 0.007385689 -0.15071578 -0.075220324
000060 73 a9 05 be 05 b7 81 3d 06 dd 59 3e 7d d5 5f bd
       -0.13052921 0.06333736 0.2127572 -0.054646958
000070 74 95 30 be 39 6b 64 3d a4 e0 b6 3c 73 96 66 3e
       -0.17244512 0.055766318 0.022323914 0.2251833
000080 4b 92 08 be 07 55 cc bd 74 7b 0b bc 46 fe 1f be
       -0.13337056 -0.09977155 -0.00851332 -0.15624341
000090 a8 a4 1d bd d0 a8 92 3a fa e5 c5 bd 85 7c 80 be
       -0.038487107 0.0011189226 -0.09663005 -0.25095
0000a0 9d f0 80 3e 94 8d 1b 3d 38 df 25 bd 52 13 1b be
       0.25183573 0.037976816 -0.04049608 -0.15144089
0000b0 52 96 59 be d2 40 30 3d b8 d4 07 3e 55 40 31 3d
       -0.21248749 0.043030567 0.1326474 0.043274242
0000c0 b0 5b df bc 43 27 1c bd c1 23 2e 3e c5 18 55 3d
       -0.0272654 -0.03812338 0.17005827 0.052025575
0000d0 35 3a 28 3e d4 d6 ac 3d 23 25 eb bd 54 53 6d bd
       0.16428454 0.08439413 -0.11481693 -0.057940796
0000e0 a6 36 a4 3d d4 63 8e bd f8 b7 d0 bd df a6 c3 3d
       0.08018236 -0.069526345 -0.10191339 0.095533125
0000f0 5a c5 19 be 20 16 11 3e 69 8b d0 bc d0 05 07 be
       -0.1501669 0.14168596 -0.025457101 -0.13185811
000100 56 a9 50 be 62 51 84 3e e1 a5 09 3e 5a c9 0d 3e
       -0.20377097 0.2584334 0.13442184 0.13846341
000110 d3 10 5c 3e ab a9 49 be 11 80 5c be d4 12 86 be
       0.21490793 -0.1969363 -0.21533228 -0.2618624
000120 dc b9 2a 3e db 4e a7 3b 8b 54 1b 3e 52 f1 88 3e
       0.16672462 0.005105836 0.1516897 0.26746613
000130 d0 34 8c 3d 3f d8 4d 3e e0 eb e7 bc a1 8f 3b 3e
       0.06846011 0.20102023 -0.028310716 0.18316509
000140 30 bd 03 be 1f ff 90 bd 37 73 bb bd e2 ae 1b 3d
       -0.12865138 -0.070799105 -0.09152835 0.038008578
000150 34 4c 9f 3d 5a 62 29 bc c0 ef 20 bc e4 4e 3d be
       0.077782065 -0.01033839 -0.009822786 -0.18487126
000160 5a f2 a8 3d 43 53 53 be d3 0d e8 3d 17 8b 52 be
       0.0824935 -0.2063723 0.11330762 -0.20560871
000170 67 ef 5d 3e c1 5c 40 bd 39 96 34 be d3 60 67 bd
       0.21673356 -0.046963457 -0.1763543 -0.056488823
000180 ba 75 1c be 00 da ca 3d 82 ae 3d 3d 02 53 82 3d
       -0.15279284 0.099048615 0.046309 0.06363489
000190 34 20 1e 3e 1a 72 fb 3d a6 48 59 be d2 9f 2f bd
       0.15441972 0.122776225 -0.2121912 -0.042877026
0001a0 36 d6 9d be e9 1c b0 3d cb 2b 29 3e 28 f0 5f be
       -0.30827492 0.08599264 0.16520612 -0.21868956
0001b0 50 5f 32 3e 5e 7b 85 3e 54 1f 6a 3d 44 94 45 3b
       0.17419171 0.26070684 0.057158783 0.0030148188
0001c0 ca 1a 2f 3d 4c 8e e1 bd b2 24 53 3e 84 99 cc bd
       0.042750157 -0.11013469 0.20619467 -0.09990218
0001d0 86 99 06 3d 12 96 bb bd 24 12 5f be 45 1e 50 be
       0.032861255 -0.09159483 -0.21784264 -0.20324047
0001e0 a0 0a 24 be 68 d7 72 be 23 90 2b bd a5 8c ff 3c
       -0.16019678 -0.23714983 -0.041885506 0.031194994
0001f0 f8 3d 7f 3e 64 90 c1 bd 13 61 f3 3d d6 c7 9c bc
       0.24925983 -0.094513685 0.1188375 -0.019138258
000200 96 8c 72 be 7a fe 3d 3e 4f 31 5e 3e ef af 02 be
       -0.23686442 0.18554106 0.21698497 -0.12762426
000210 c1 a8 a7 bd 52 c7 f2 bd 5d d3 e8 3c 65 9a 14 be
       -0.08186484 -0.118544236 0.028421098 -0.14512022
000220 26 68 b9 be 98 95 5d 3d ac f3 4a 3e 1c 98 09 3e
       -0.3621227 0.05409774 0.19819516 0.13436931
000230 23 a5 32 3e ef 9c 4a bd 5a 16 c3 3d 64 18 26 3e
       0.17445807 -0.04946607 0.095257476 0.16220242
000240 3f a1 2b be 6e 4e 9a 3d 46 78 46 be 77 5d b9 3d
       -0.16760729 0.075344905 -0.19381818 0.0905103
000250 b6 7c 1b be 4d 35 d4 bc d2 be d0 bd 73 7a dd 3c
       -0.15184292 -0.025904322 -0.10192646 0.027035927
000260 99 c0 a8 bd 4c 39 d5 3d 18 82 02 be e5 7d 48 be
       -0.0823986 0.10411319 -0.1274494 -0.19579275
000270 da cd 91 bb e0 d2 91 bd 0c 9f 61 bd 0a 6b 5f be
       -0.0044495882 -0.07120299 -0.05508332 -0.21818176
000280 8c de ae bd 12 14 84 be 01 02 da 3c 68 8a b4 bd
       -0.08538541 -0.25796562 0.026612284 -0.088154614
000290 3e c4 45 3e 72 cc 24 be 30 7d ba bd 1e 4d 5f bd
       0.19313142 -0.16093615 -0.09105909 -0.054516904
0002a0 43 c1 36 3b b2 8e 3a 3e 3b 47 25 be cf d5 71 bd
       0.002788619 0.18218496 -0.16140454 -0.059041794
0002b0 9e 06 1f 3e 95 b7 00 3d e5 9a 40 3e 3d e4 54 3d
       0.15529868 0.031425077 0.18809088 0.051975477
0002c0 51 84 f9 3d 04 1c 23 bd 19 84 1c 3e c8 17 a5 3d
       0.121834405 -0.03982164 0.15284766 0.080611765
0002d0 37 47 2c 3e 76 02 f5 3d dc a6 2d 3b 51 ff d0 bc
       0.16824041 0.1196336 0.002649716 -0.02551237
0002e0 0b 48 0c 3e fa a3 96 bd 0e 75 56 3e 49 24 68 bd
       0.13699357 -0.07355495 0.2094309 -0.05667523
0002f0 0f 51 13 be cd 97 12 be a9 bc d9 bd 58 57 99 3d
       -0.1438639 -0.1431572 -0.10631687 0.074873626
000300 05 7b 4e 3e b6 ea 84 3e 92 aa 0b be 14 bb 1e be
       0.20164116 0.2596032 -0.13639286 -0.15501052
000310 61 c9 26 3e fc a9 af bc 9b a2 7f be ac 50 e5 3d
       0.16287757 -0.02144336 -0.24964373 0.111970276
000320 fb 1e 4b be fc 26 1d 3e b9 b3 33 3e c2 19 8a 3e
       -0.19836037 0.15346903 0.17549028 0.26972777
000330 e9 f1 56 3e 46 37 e4 bd 8e 38 93 3c 21 de 08 be
       0.20990719 -0.11143355 0.017971303 -0.13365985
000340 40 cf 5f be 5f 18 b3 bd 09 2b 1f be 36 c2 34 bd
       -0.21856403 -0.08744883 -0.1554376 -0.044130526
000350 68 54 47 3e 40 4c e4 3d f4 08 c2 3b ff c8 26 be
       0.19465792 0.11147356 0.0059214775 -0.16287611
000360 14 a2 e3 bd c4 01 9f 3d d1 ad 80 bd 49 37 8c 3e
       -0.11114898 0.07764009 -0.06283153 0.2738593
000370 c9 34 06 3e b9 9e 6a be 16 f5 91 bd 7b 8a a4 3d
       0.13106073 -0.2291211 -0.071268246 0.080342256
000380 e8 19 5c be 00 a7 bc 3d e1 8b 5e 3e cb bc 8e 3d
       -0.21494257 0.0921154 0.21733047 0.06969603
000390 4d e9 f4 3d cf 03 aa 3d 8d 4a 86 3d e6 3e fb bd
       0.11958561 0.08301508 0.06557188 -0.12267856
0003a0 96 6a a5 3d 09 e4 2a be b2 4f 34 3e 73 cf df 3d
       0.0807697 -0.16688551 0.17608526 0.1092824
0003b0 07 88 08 3e b8 38 4c bd 81 49 2e be 7f 5c 0e be
       0.1333314 -0.04985878 -0.17020227 -0.13902472
0003c0 9d ea a9 bd d4 fa 37 3e ca df 00 be 97 62 45 be
       -0.08296702 0.17966777 -0.12585369 -0.1927589
0003d0 77 82 8a be 53 7f 19 3d 77 14 9b 3e 9a c8 a9 3c
       -0.27052662 0.03747494 0.3028905 0.020725537
0003e0 be 64 13 be 52 69 bf 3d fd 24 85 3d cd aa 7b 3e
       -0.14393899 0.0934626 0.065011956 0.24576874
0003f0 bd 71 ed bd af 7b de bd 65 9a 3f be d5 39 36 3e
       -0.115939595 -0.108634345 -0.1871124 0.17795499

bias_ih_l1 f4 [16]
000000 66 67 2f 3e db 1b 94 3d 0a fd 15 bd 11 dc 1e 3e
       0.17129287 0.072318755 -0.03661827 0.15513636
000010 00 e6 0c be 92 20 3f 3e df 1f c8 3d 0c 74 d9 3d
       -0.13759613 0.18664768 0.09771704 0.10617837
000020 63 65 c0 3d d3 d6 62 3e 23 3a 74 be 4d 0a 22 3e
       0.09394338 0.22152261 -0.23850302 0.15824242
000030 95 e9 60 be 85 84 25 3e 9c 8c 8a 3d 97 07 0f be
       -0.21964104 0.16163833 0.067651 -0.13967739

bias_hh_l1 f4 [16]
000000 8f 2a ff 3d 1b b0 a9 bd eb 2a 12 be 51 e5 bc bd
       0.12459289 -0.082855426 -0.14274184 -0.09223426
000010 71 d7 71 be 75 ca 05 3d 9f e1 c6 bd 86 5a 84 bd
       -0.2361734 0.03266378 -0.097110026 -0.064625785
000020 93 18 9a bd d4 1e 00 be 41 82 41 3e 9e de 10 3e
       -0.075242184 -0.1251176 0.18897344 0.14147422
000030 03 fd 86 be 0e 56 38 be 50 70 a6 bd 1c 6f 12 3e
       -0.26364908 -0.18001577 -0.08126891 0.14300197

weight_ih_l2 f4 [16, 16]
000000 54 59 86 bd d3 1f 9d bd 5e 8d 5a be 85 01 43 be
       -0.06560007 -0.076720856 -0.2134299 -0.19043548
000010 d6 b4 38 3e 81 0f b7 3d 2d 59 3a be e7 57 13 be
       0.18037733 0.08938504 -0.1819808 -0.14389001
000020 2d f6 97 bd 5f 84 3a be 1c 7e 85 be f5 55 32 3e
       -0.07420001 -0.18214558 -0.26072776 0.17415603
000030 b4 b3 e4 3c 90 d3 43 3d 15 62 31 3e 13 63 a3 3d
       0.02791772 0.047809184 0.17322572 0.07977881
000040 65 80 58 bd 57 13 9d be 1a 1e e1 3d 36 e1 55 bd
       -0.05285682 -0.30678818 0.109920695 -0.05221673
000050 32 a4 a6 3b 24 f5 b7 bd 11 95 0e be e1 bf c0 bd
       0.0050854916 -0.08982304 -0.13924052 -0.09411598
000060 89 be 5a be d9 1f 48 3e c5 f3 16 3e 2e 0a 36 3c
       -0.21361746 0.19543399 0.14741428 0.011110825
000070 8a e4 50 3e 74 1d 87 3e c0 f5 28 3e c1 be 1f 3e
       0.2039968 0.26389658 0.16499996 0.1560011
000080 5f 60 d3 3c 7b d7 8b 3d 87 38 ba bb 7d 08 5a 3e
       0.02580279 0.06828209 -0.005683008 0.212923
000090 be a5 17 3e d4 12 87 3d 6c a0 03 3e 81 c2 6c be
       0.1480932 0.06595388 0.12854165 -0.23121072
0000a0 98 21 0a be bd 38 e2 bd 4f 90 03 3e b4 ef 41 bc
       -0.13489377 -0.11045978 0.12848018 -0.011836935
0000b0 b6 1e 3c bd 59 ae 49 be 9f fa a0 bd 56 51 c9 3d
       -0.045927726 -0.19695415 -0.07860302 0.09829967
0000c0 68 b7 c4 be e4 0d b1 bd 21 be 42 3e 95 c1 1d bd
       -0.38421178 -0.086452276 0.19017841 -0.038514692
0000d0 a0 71 91 3d 14 96 45 3e b5 90 82 3e 65 23 22 3e
       0.071017504 0.19295532 0.25501028 0.15833814
0000e0 2e fc a6 be 1d af 82 bc 16 a3 51 3e 49 80 5a be
       -0.32614273 -0.015952641 0.20472369 -0.21338
0000f0 f8 b3 6b be 3a e0 ed bc f4 c8 6d 3e 12 7d 43 3e
       -0.23017871 -0.029037584 0.23221189 0.1909068
000100 71 a5 ae be 91 39 53 be aa 1b a6 b9 4a 5d 47 be
       -0.34110597 -0.20627429 -0.000316826 -0.1946918
000110 07 35 24 3d 19 fa 2b 3e fa 39 7b 3e be 80 97 bc
       0.040089633 0.16794623 0.24533835 -0.018494006
000120 63 47 d7 bd 3d f7 25 be 7c e8 04 3e e3 8b a8 3d
       -0.10511663 -0.16207595 0.12979311 0.08229806
000130 aa 22 2a 3d 70 a2 14 3e 44 75 d2 bd de 8c 86 bd
       0.041536964 0.1451509 -0.10276273 -0.06569837
000140 2b 62 b7 be 31 c4 96 be fb 69 c0 3d 03 27 91 bd
       -0.35817084 -0.29446557 0.09395214 -0.07087519
000150 ed cc ed 3c fa ce c9 3e 32 1e 8d 3e 41 b4 a4 3e
       0.02902838 0.39415723 0.275621 0.32168773
000160 c9 06 1c be 05 2d 29 be 48 28 65 3d d2 ec 8f bd
       -0.15236963 -0.1652108 0.05594662 -0.07027592
000170 cd c4 2b be a4 dc 5c 3e da af 45 3e 20 2f 90 be
       -0.16774292 0.21568543 0.19305363 -0.28160954
000180 a6 f2 66 be c1 78 82 be 45 8c 0e 3e 6c ad a3 3d
       -0.225535 -0.25482753 0.13920696 0.07992062
000190 e4 61 00 bd b1 cc 8d 3e ac 42 87 3e 26 fa fe 3c
       -0.031343356 0.2769523 0.26418054 0.03112514
0001a0 19 ab c1 bd 43 cb 82 3d df 25 2e 3e 4c 27 e3 bd
       -0.094564624 0.06386425 0.17006634 -0.1109148
0001b0 eb 0e 4c 3e d0 d3 14 3e 16 f2 33 bd 83 85 21 bd
       0.19927566 0.14533925 -0.043932043 -0.039433967
0001c0 5c 7d d6 3d 2a 84 46 3e 68 d4 df 3d ed 6a d4 3d
       0.10473129 0.19386354 0.10929185 0.10371957
0001d0 fa 98 8d 3e 4a ae a9 bd e4 b8 dd 3d ee 3e 65 bd
       0.27655774 -0.08285196 0.10826281 -0.055968218
0001e0 bb 2d 1d 3e 41 29 09 be b9 59 0f 3e 34 95 f4 bd
       0.15349476 -0.13394643 0.1399907 -0.11942521
0001f0 06 4c ae 3d db 06 84 bd 7c 56 02 3e 4b 67 4d be
       0.08510594 -0.0644662 0.12728304 -0.20058934
000200 d3 a1 05 be 6a fb 65 be 1f bf 8c 3d 64 00 d6 3c
       -0.13050012 -0.22459188 0.06872391 0.026123233
000210 05 25 12 3d 5f 15 01 be 3c e3 9e bd 81 06 c7 3d
       0.035679836 -0.12605809 -0.07758185 0.097180374
000220 31 05 39 be e6 55 0a bc f2 f9 70 be b9 48 1c 3e
       -0.18068387 -0.008443331 -0.23532847 0.15262116
000230 2e f5 a9 3d bd 61 67 3e 2a e9 d6 bd 75 84 50 3d
       0.082987174 0.22595878 -0.10493691 0.05090757
000240 b6 bc 6b be e7 da 2b bd 9b 61 99 bd 64 15 f6 3d
       -0.23021206 -0.04195681 -0.0748932 0.12015799
000250 a9 4f 61 3e dd 39 7e be 76 69 cd bd bb 71 39 be
       0.22003044 -0.2482676 -0.10029881 -0.18109791
000260 8f 3d 34 3e 75 29 18 3d 70 c2 d7 3d 0f a8 97 bd
       0.17601608 0.03714891 0.10535133 -0.074051015
000270 ca d0 82 3d 1e 46 5d 3e d9 a4 be 3d 33 a4 72 3e
       0.063874796 0.21608779 0.09308786 0.2369545
000280 b8 8f 8b bd b2 6f db bd 7f 31 0f b9 65 d2 bb bc
       -0.068145216 -0.107146636 -0.00013655981 -0.022927472
000290 c9 3c 27 3d fd 52 4d 3e 22 3d 8e 3e 36 fb 8c 3e
       0.040829454 0.20051189 0.27781016 0.2753541
0002a0 f0 3e 53 bd 3a 10 03 3e 3c b1 38 bd fe b9 2b be
       -0.051573694 0.12799159 -0.0450909 -0.16770169
0002b0 79 69 d1 bc d0 45 37 be 2d 9e fa 3d 2d a9 48 3e
       -0.025562989 -0.17897725 0.12237201 0.19595785
0002c0 08 5d 0e be e5 ea 94 be 13 78 40 bd 71 cf 79 be
       -0.13902676 -0.2908546 -0.04698951 -0.24395539
0002d0 81 0b 0b 3d 26 a7 66 3d 0a 77 2c 3e c5 1c 78 bd
       0.033946518 0.05631175 0.16842285 -0.06057431
0002e0 c1 01 88 bd eb d5 5d bb b2 5e d6 3d 8b 29 a6 bd
       -0.066409595 -0.003384943 0.104672804 -0.081133924
0002f0 50 c2 0e 3e 49 7b 9b 3e b5 bc 4a 3c 5b 57 17 be
       0.13941312 0.30367497 0.012374093 -0.14779417
000300 e1 a2 e9 3d ec a1 90 3e b8 32 3f bd 8a 10 28 3e
       0.1140802 0.28248537 -0.04667923 0.16412559
000310 89 51 aa bc db 50 8a be 80 f0 99 be 34 e0 87 bd
       -0.020790832 -0.27014813 -0.300663 -0.0663456
000320 32 2e 77 3e 6c e7 80 3e f9 6e de bd 8b e9 f4 3c
       0.24138716 0.2517656 -0.1086101 0.029896518
000330 39 25 b5 3c 86 7e 98 bd c1 4b 56 be 84 8c 2e 3d
       0.022112476 -0.074460074 -0.20927335 0.042614475
000340 b0 96 ad be b7 fa fb 3d e5 c9 94 be b6 f6 7f 3d
       -0.33904028 0.123036794 -0.29060283 0.06249114
000350 9e 33 06 3d 9a a6 20 3e e9 49 36 bb 2e 4e 9e bc
       0.03276407 0.15688553 -0.002781505 -0.019324388
000360 f2 9f c0 3d 35 5c b2 bc b0 cc 87 be 36 76 21 3e
       0.09405507 -0.021772483 -0.26523352 0.1576775
000370 62 61 89 be 2a 68 8e 3e 3c 0f 11 3d b8 dc 00 be
       -0.2683211 0.27813846 0.03541492 -0.12584198
000380 53 fd 11 3e 87 cb 94 bd 7a 42 4b be 2b 31 51 3e
       0.14256792 -0.07265382 -0.19849578 0.20428912
000390 5f 0b 63 3e 02 09 f4 3c 42 28 70 3e 76 aa 01 bd
       0.22172306 0.029789452 0.23452857 -0.031656705
0003a0 35 1d 2c be 02 20 37 3e 0b 33 12 be 68 e8 9f 3d
       -0.16808017 0.17883304 -0.14277284 0.07808
0003b0 43 b7 6f be b0 e2 59 bd 9b f9 41 be 8c 61 07 be
       -0.23409753 -0.0531947 -0.18942873 -0.13220805
0003c0 14 11 d0 bd 7b 30 09 3e ac 87 84 3e 0b 4b 62 3e
       -0.101595074 0.133974 0.2588476 0.22098939
0003d0 1e e3 9d 3c 50 ff 04 3d 0c d5 32 bd 5a 93 03 3d
       0.019273337 0.032470047 -0.04366021 0.032122947
0003e0 b6 78 ed 3c 2e 25 7b 3c 76 ed 5b 3e 71 f9 c0 bd
       0.028988224 0.015328689 0.21477303 -0.09422577
0003f0 6a 70 52 bd 75 95 d5 bc 99 68 49 be fb 8d 54 3d
       -0.051376738 -0.026072243 -0.19668807 0.051893216

weight_hh_l2 f4 [16, 16]
000000 3d b5 2d bd 44 78 7c be 13 08 3a bd c9 f5 94 3e
       -0.04240917 -0.24655253 -0.045417856 0.2909377
000010 06 2f ff bd e8 d9 58 bd be 3e 42 ba 27 89 1b be
       -0.12460141 -0.052942187 -0.0007409862 -0.15189038
000020 1d ce e9 b9 24 6b 02 be ff 07 49 3e a0 c6 9e 3c
       -0.0004459479 -0.12736183 0.19631957 0.019381821
000030 a1 2c 83 3d 8c 06 0c be 42 b5 fb bd 71 81 05 be
       0.06404997 -0.13674372 -0.122904316 -0.13037659
000040 83 5f 97 3e d5 77 5e bc 1a 7f 47 bd 33 de af bd
       0.29565057 -0.013578375 -0.048705198 -0.08587303
000050 82 e1 32 3e 6c dd f9 bc ab 27 1b 3d 01 05 5f 3e
       0.17468837 -0.03050109 0.037879627 0.21779253
000060 e1 f7 e3 bd e4 1e e0 bd c6 25 aa bd 1b ef 91 3d
       -0.111312635 -0.10943392 -0.08307986 0.07125684
000070 cf 0c f8 bd 06 6f 50 3d 49 0f 5d be 1f 17 7a 3d
       -0.12111818 0.05088713 -0.21587862 0.061057206
000080 a5 81 2d 3e 42 90 51 3e 05 08 1c 3e f3 d6 f2 3d
       0.16943987 0.20465186 0.15237434 0.118574046
000090 a8 2c e7 bc fa 29 07 3c b0 e3 68 3d fc 49 30 3e
       -0.028219536 0.008249754 0.056857765 0.17215723
0000a0 c5 fc c8 3d 7d 13 6c 3e c9 5b 2d 3d e7 30 1d be
       0.09813837 0.23054309 0.04232386 -0.15350686
0000b0 71 59 0f be fb 26 44 be 73 60 2c 3d 18 4f 90 bd
       -0.13998963 -0.19155495 0.04208417 -0.07046336
0000c0 11 7f 89 3a eb f9 d9 bc 7f bb 69 3e d2 3a 52 be
       0.0010490139 -0.026608428 0.2282543 -0.2053025
0000d0 44 74 f0 bd 59 05 c7 3b 50 ea fe bd e2 3d 45 be
       -0.11740926 0.0060736355 -0.12447035 -0.19261888
0000e0 a4 c0 7f 3e d2 a2 08 3d 57 8b 81 be 87 26 31 3e
       0.2497583 0.033358403 -0.2530162 0.17299853
0000f0 78 01 82 3d 98 dd d6 bc 3c 0a 89 be 3f 3c 58 be
       0.063479364 -0.026228711 -0.2676562 -0.21116732
000100 a0 6b 1a 3e 46 9c db 3d 3b eb 57 3e ef f7 b5 3d
       0.15080118 0.10723166 0.21085827 0.0888518
000110 d7 a2 f9 3d de 30 95 bd aa 34 9b 3e d0 09 a9 3c
       0.12189262 -0.07284711 0.30313617 0.020634562
000120 48 d7 48 bc a1 06 63 bd 4a 52 96 3c e2 3c 37 be
       -0.012258358 -0.055426244 0.018349785 -0.17894319
000130 de 90 77 be 98 60 af bc 10 e8 57 3e 46 27 de 3d
       -0.24176356 -0.021408364 0.21084619 0.108473346
000140 14 25 26 be 1e d3 95 3d 8a fe 3a be 58 fc e6 3d
       -0.16225082 0.07315658 -0.18261161 0.112785995
000150 81 4f 54 3e 95 40 9b 3a fe 82 56 3e 37 75 32 be
       0.20733453 0.0011844808 0.20948407 -0.17427526
000160 31 73 50 be c2 86 c2 bd c5 60 12 be 13 eb 04 be
       -0.20356442 -0.09498359 -0.14294727 -0.12980299
000170 ac 83 42 3d 43 ee 18 be 32 7d d4 bd e7 c9 bf 3c
       0.047488853 -0.1493464 -0.103754416 0.023411704
000180 85 dd 47 bd 30 68 3f be 45 fe 29 bd 7c bc f5 bd
       -0.04879524 -0.18692088 -0.041502256 -0.11998841
000190 af 30 cd bd 1d c3 ed bb 75 b2 53 be fe cf c5 bd
       -0.10019051 -0.0072559253 -0.20673545 -0.09658812
0001a0 92 3f c8 3d 25 eb 6a 3d c2 1d 0b 3e 99 fe 3a be
       0.0977775 0.057353158 0.1358557 -0.18261184
0001b0 98 bd b2 3d 1e 04 c8 bd fd 80 da bd 35 07 f6 3d
       0.087275684 -0.0976641 -0.10669134 0.120130934
0001c0 b6 c4 3e be cd a5 62 be 68 66 6a 3e 07 b2 16 be
       -0.18629727 -0.2213356 0.22890627 -0.1471635
0001d0 c0 f8 b3 bb 27 ce e4 3d c2 a8 d6 3a 1e e9 2d 3e
       -0.0054923 0.11172133 0.0016377198 0.16983458
0001e0 d5 b6 c1 3d 55 c5 5e 3d ab af 5a be 67 fc 81 bd
       0.094587006 0.05438741 -0.21356075 -0.0634697
0001f0 77 2c 61 bd 94 d6 0d 3e 5b d9 28 bc cd 89 dd bd
       -0.054974046 0.13851386 -0.010305728 -0.10817299
000200 ad 92 d8 bd 8b 74 b0 3b c9 d8 0b be 1c c2 a5 bd
       -0.10574851 0.0053849868 -0.13656916 -0.08093664
000210 f0 bc 53 be 6c d1 51 3e b0 85 0a be b5 bd a5 3d
       -0.20677543 0.20490044 -0.1352756 0.08092824
000220 82 df bb bd 8d 44 3e be 61 ba 8c be 95 bc 26 3e
       -0.0917349 -0.18580838 -0.27485946 0.16282876
000230 23 dc ac 3c 36 12 4e 3d 49 96 16 3d db a1 35 3e
       0.021101063 0.050310336 0.036764417 0.17737524
000240 c9 c3 d1 bc e6 16 49 bd 21 5e 4c 3e 91 8c 37 be
       -0.025606053 -0.049094103 0.19957782 -0.17924716
000250 d3 17 78 bd 0e 3d dd bd 59 46 af bc b1 de 36 3e
       -0.060569596 -0.10802661 -0.021395849 0.17858388
000260 b0 03 9e 3e ea 7b db bc 7c 7b f3 bd f7 be 33 3e
       0.30862188 -0.026792485 -0.11888787 0.17553316
000270 ad e5 d5 3d 1a 6d 71 bd 8f b3 42 bd 9c 2f 0a 3e
       0.10444198 -0.058941938 -0.04753452 0.13494724
000280 67 1c 36 be 53 25 2d be cb 86 1f bd 23 9c 81 3e
       -0.17784272 -0.1690877 -0.038946908 0.25314435
000290 5a 1f 5a be fc 23 22 bd e4 ca a1 bc 42 8f 25 3e
       -0.21301022 -0.0395851 -0.019750066 0.1616793
0002a0 52 67 d0 3d 2a b8 00 be 84 9f 0e be 32 ae f2 3c
       0.10175957 -0.12570253 -0.13928038 0.029624078
0002b0 fe 33 cd bd 90 ba 0d 3e 91 b1 84 bd 31 23 83 be
       -0.10019682 0.13840699 -0.064791806 -0.25612786
0002c0 63 b1 52 be f7 d3 1d 3e b8 cf 45 3e e8 96 1a 3e
       -0.2057548 0.1541289 0.1931752 0.15096629
0002d0 48 a4 82 bc cf 25 83 3d c9 96 32 bb 11 80 4d be
       -0.015947476 0.06403696 -0.002725052 -0.20068385
0002e0 17 3e 2f be 41 d6 62 be 75 13 5a 3e 57 8c c7 3d
       -0.17113529 -0.22152044 0.21296485 0.097435646
0002f0 0e 1b 02 3e 72 3a 1c be bf 45 67 be 7e 98 ec 3d
       0.12705633 -0.1525667 -0.225852 0.11552523
000300 51 4a f7 bd ff b1 1c be 93 fa 52 bd 28 07 14 3e
       -0.120747216 -0.15302275 -0.051508497 0.14455855
000310 42 95 6c 3d 7b 73 19 be f6 6a 4f 3e 67 6b 78 3e
       0.05775953 -0.14985459 0.20255646 0.2425972
000320 49 d4 a6 bd 03 ec 01 bb a9 4c 85 3e 22 84 7c be
       -0.08145959 -0.0019824512 0.2603505 -0.2465978
000330 53 53 63 be 6a 95 93 bc 4c fb 45 be 42 b9 0e 3e
       -0.22199754 -0.018015582 -0.19334143 0.13937858
000340 56 92 6a 3e 39 53 5e be bd c7 3a be 56 98 ff 3d
       0.22907385 -0.21711434 -0.18240257 0.12480228
000350 b5 c0 19 be 52 22 72 3e 0f af 34 3e 81 7b 7d be
       -0.15014918 0.23645905 0.17644905 -0.24754144
000360 c9 b6 79 3e 40 57 60 be e2 9a d4 3d 9f 4e f6 bb
       0.24386133 -0.21908283 0.10381104 -0.0075166966
000370 bb 44 f6 3d 60 ee 8f bd 0d 22 ab 3d 89 be 1e 3e
       0.12024828 -0.07027888 0.08356104 0.15502371
000380 a5 c3 64 bd 14 e3 2a be d9 4d 0f 3e 59 ec e4 3d
       -0.055850644 -0.16688186 0.1399454 0.11177892
000390 85 30 07 3e d0 3d cf 3b 25 35 54 be 1e 5a 01 be
       0.13202102 0.0063245073 -0.20723398 -0.12632033
0003a0 28 c7 62 3d b8 2b 09 be e9 94 5b 3e 8b 4d 8c 3e
       0.05536571 -0.13395584 0.21443523 0.2740291
0003b0 8a f1 95 bc 0e 44 dc 3c 1f 6c 62 3e 37 78 8e bd
       -0.018303651 0.02688792 0.22111557 -0.06956523
0003c0 4e 65 76 3e ff 57 8b bd 3c c3 66 3e 3f f7 0e 3e
       0.24062082 -0.06803893 0.22535414 0.13961504
0003d0 c8 82 5e bd aa c1 09 be 39 62 3a be 2d ae 0e be
       -0.05432394 -0.13452783 -0.18201531 -0.1393363
0003e0 1c ff db bd 68 39 c9 bd 43 d7 f6 bd a6 a1 5b 3e
       -0.107420176 -0.098254025 -0.12052777 0.21448383
0003f0 6d a8 3f 3e 81 2a 9f 3d 3f 7a 32 bd 90 68 7d bd
       0.18716593 0.07771779 -0.043573614 -0.061867297

bias_ih_l2 f4 [16]
000000 cf 01 89 3e d9 f2 93 3c 62 cb 2c 3e 53 00 2d 3d
       0.26759192 0.018060135 0.1687446 0.042236637
000010 b3 a0 1c 3e 29 fb 03 be 24 e4 58 3e 3b f2 1a be
       0.15295677 -0.12888779 0.21180779 -0.15131466
000020 2a f6 f9 3d ce 4d 5c 3e fd 1a 81 3e 55 8b df 3d
       0.12205155 0.21514055 0.25215903 0.10915247
000030 fe c1 15 3e 36 57 c9 bd 17 30 48 3e bf 2f 69 be
       0.14624783 -0.09831087 0.19549595 -0.2277212

bias_hh_l2 f4 [16]
000000 a2 62 4b bc b7 39 41 be 88 32 8c be 4d 67 16 3e
       -0.012413653 -0.18869673 -0.27382302 0.14687844
000010 86 7f 11 be 19 35 1d 3e 70 fa 6c 3c ed ae 27 bd
       -0.14208803 0.15352286 0.014464006 -0.040938307
000020 aa a0 69 be 0b db 19 be 21 c9 48 be 98 3a 71 3e
       -0.22815195 -0.15024965 -0.19607975 0.23557508
000030 50 c5 3d be 76 b4 95 3e c3 91 59 be 9b 23 26 3d
       -0.185323 0.29239243 -0.2124701 0.0405613

weight_ih_l3 f4 [16, 16]
000000 75 94 7b be 3e 01 c4 3d 90 2d be 3d 4c 62 e1 bd
       -0.2456835 0.095705494 0.09286034 -0.11005077
000010 36 af 09 3e fb f9 b4 be c0 60 15 bb 85 ff 40 3c
       0.13445744 -0.3534697 -0.0022793263 0.011779671
000020 fe e0 85 be ff 4e 1d 3d 10 d2 53 be f1 9c 84 3d
       -0.26148218 0.038405415 -0.20685601 0.06475247
000030 74 0c 89 3e 61 67 72 be c8 76 57 be 64 f8 29 3e
       0.26767313 -0.23672248 -0.21041405 0.1659866
000040 ac 2c 01 3d 6f 4b 9c 3d 73 56 29 be 36 1f 8c bc
       0.031536743 0.07631575 -0.16536884 -0.017104726
000050 a9 79 35 bd 2b 95 52 3e 17 3d 77 be ce 93 23 bc
       -0.044305477 0.20564716 -0.24144398 -0.00998397
000060 2d a7 9e 3e dc 38 2e bb 06 04 57 3e be 65 13 3c
       0.3098692 -0.0026584184 0.20997629 0.008996425
000070 7b 91 73 be 11 e4 a3 bd bf 74 5f be 5f d7 93 bd
       -0.23785965 -0.080024846 -0.21821879 -0.07218813
000080 40 cf fd bd 63 a6 5b 3e 11 27 0b be cd 20 7a be
       -0.123930454 0.2145019 -0.13589121 -0.24426575
000090 6e e2 20 be 5e d7 b8 be 50 01 43 3e 91 74 82 3e
       -0.15711376 -0.36101812 0.1904347 0.25479558
0000a0 9a 3d f8 3d 09 7c f0 bd b5 2e ba bd 11 f2 05 be
       0.121211246 -0.11742408 -0.0909094 -0.13080622
0000b0 d3 7b c4 3d c6 4f 3d 3e e4 45 6e 3e 64 fc ea bd
       0.0959393 0.18487462 0.23268849 -0.11473921
0000c0 c5 1e ae 3d 4d 49 c3 bd bb a9 c4 bd c6 4e 9c bc
       0.085019626 -0.095354654 -0.09602686 -0.01908053
0000d0 06 26 36 be 8a 63 33 3e 41 6f 06 3e 00 28 54 be
       -0.17787942 0.1751844 0.13128377 -0.20718384
0000e0 88 05 2b 3d 69 0c 5c 3e 6d 2f 8b bc 0c 8c 6e 3e
       0.041753322 0.21489109 -0.016990388 0.23295611
0000f0 9c 23 38 be df de 67 3e 8d 7d b2 3d 04 12 12 be
       -0.17982334 0.22643612 0.08715353 -0.14264685
000100 b4 4c 58 bd b7 e6 13 3e a1 6f 58 be 2e 02 ae be
       -0.052807525 0.1444348 -0.21136333 -0.33986038
000110 11 d2 5d be dc 9f 89 3c 98 82 2c be b5 bb dc bd
       -0.21662165 0.01679986 -0.16846693 -0.1077799
000120 a4 40 a5 be ac e7 c6 3c 17 70 e4 bd 9c 78 20 be
       -0.3227588 0.024280392 -0.11154192 -0.15671009
000130 d1 fc 87 3e 15 c9 cb 3c b2 05 6e 3e d8 5b 2e 3d
       0.2656007 0.024876157 0.2324436 0.042568058
000140 45 ea fe bb 5c be 02 3e b5 7f 9e bd 9b 74 ed 3c
       -0.007779392 0.12767929 -0.07739202 0.028986266
000150 9b e7 57 bd 45 23 17 3d 76 e7 00 3e c3 2f 7a bd
       -0.05271111 0.03689887 0.12588295 -0.061080705
000160 2c 3f 9c bd 42 e6 43 3e 3f db b3 3a 48 72 e3 3d
       -0.076292366 0.19130805 0.0013721957 0.11105782
000170 f4 f2 23 3e 72 a5 88 3d d4 f5 64 3e 22 c8 81 bd
       0.16010648 0.06672181 0.22359401 -0.063370004
000180 03 14 08 3e 74 0b 01 be b8 ea 15 3c 2e 43 34 3e
       0.13288884 -0.12602025 0.0091502 0.17603752
000190 7a 2a 7a 3e 15 c2 03 3e 6a d9 d6 3d 08 e2 62 be
       0.24430266 0.12867005 0.10490687 -0.22156537
0001a0 2a d3 e0 bd 58 2f 11 3d c0 47 4f 3e 4d 26 e6 3d
       -0.10977776 0.03544554 0.20242214 0.11237774
0001b0 a8 c6 3f be df da 5e 3e ea e2 24 3d 0d 80 d7 3b
       -0.18728125 0.2176318 0.040255465 0.006576544
0001c0 0b e6 e5 bb de f6 85 3e 68 5f b5 3d a0 e7 2d be
       -0.0070159486 0.26164907 0.08856088 -0.16982889
0001d0 84 16 a6 3d 3c 9f 0b 3e fe 0c 2e 3d 3d 00 80 3c
       0.08109763 0.13634962 0.04249286 0.015625114
0001e0 7a 4d 91 3d 65 6a 84 3e 01 14 04 3e 0c d7 6d be
       0.070948556 0.25862423 0.12898256 -0.23226565
0001f0 11 0a fc 3d 0f 48 35 be a5 a8 34 bd ef 92 17 3e
       0.123066075 -0.1770327 -0.044106144 0.14802144
000200 9e 83 ad 3d 44 b0 31 be ad 26 73 3e 54 f9 7e be
       0.084723696 -0.17352396 0.23745222 -0.24899799
000210 2a 4f b4 bd b6 2b 8b be c8 15 1a 3d cc 6d 22 be
       -0.08804162 -0.27181786 0.03761843 -0.15862197
000220 59 6b c2 3d 53 a7 d5 bc 54 57 0c 3e 79 58 09 3e
       0.09493131 -0.026080763 0.13705188 0.13412656
000230 31 04 22 be 7f 06 82 3d 0b f5 82 3c a0 23 0c 3e
       -0.15821911 0.06348895 0.015985986 0.13685465
000240 8b e2 15 be 3c cd fc 3d b3 a1 e5 bd 1e 13 83 3d
       -0.146372 0.12343833 -0.11212482 0.06400131
000250 a9 69 0f 3e 05 3e ce bd f4 51 57 be 63 8b f0 3d
       0.1400515 -0.10070423 -0.21027356 0.11745336
000260 1a 09 2e bc ff 45 69 be 96 67 ff bd 29 28 36 be
       -0.010622287 -0.22780608 -0.12470929 -0.17788757
000270 43 00 28 be f1 cc 2f 3d 22 ba af 3c c7 11 6a be
       -0.1640635 0.042920057 0.02145106 -0.22858344
000280 bf 1d 51 be e4 c6 4d 3e 0d 18 0a bd 77 25 d4 3d
       -0.20421503 0.20095402 -0.033714343 0.10358708
000290 97 46 2a be 34 08 da bd 9e 1f 4c 3e a1 8f 35 be
       -0.1662849 -0.10646096 0.19933936 -0.17730571
0002a0 4c 28 50 3c f3 56 1e 3d be 8d f8 3d bb 66 25 3b
       0.01270492 0.03865714 0.1213641 0.0025238234
0002b0 d1 c1 d8 bc 17 1e 2b 3d ac bb 11 3d 2e 69 bd bc
       -0.026459606 0.041776743 0.03557937 -0.023121443
0002c0 78 ff af bd 1b 9e 9f 3d 57 ec 02 3e f3 b4 07 3e
       -0.08593649 0.07793828 0.12785469 0.1325262
0002d0 e1 bd 56 3e 98 ab 47 3d b3 96 3a 3e bf c6 5e bc
       0.2097087 0.04874763 0.1822155 -0.013597189
0002e0 c6 dc 54 bc 8e 54 b0 3d 3f cc ff 3d 53 19 62 3e
       -0.01299209 0.086098775 0.12490129 0.22079973
0002f0 30 f0 11 be 92 69 5e 3e e6 03 ce bd f2 0d 32 be
       -0.1425178 0.2171996 -0.10059337 -0.17388132
000300 2b 13 99 bd 91 98 80 be 31 3a 11 be c2 0b 2b be
       -0.07474359 -0.251164 -0.14182355 -0.16703704
000310 aa f2 87 be 5b 09 82 bd 96 28 41 be 10 72 42 be
       -0.26552325 -0.06349441 -0.18863139 -0.18988824
000320 a8 a7 85 3d 34 c6 28 be 8c 4d 1a 3e 17 e9 18 be
       0.065261185 -0.16481858 0.15068644 -0.14932667
000330 54 72 78 3e 83 5c 01 be 1e b6 ea bd 52 5f ce bd
       0.24262363 -0.12632947 -0.11460517 -0.10076775
000340 2b 05 62 3e 17 87 e0 bd fa cc d0 bd e7 40 bf bd
       0.22072284 -0.10963266 -0.10195346 -0.09338551
000350 25 20 a0 bc ef 01 ca 3e 32 f4 b5 3c 87 ee 19 3d
       -0.019546578 0.394546 0.022211168 0.037580993
000360 41 00 ca bd 42 5e 4e 3c aa 86 23 be f4 23 a6 3e
       -0.0986333 0.012595715 -0.15969339 0.32449305
000370 eb 9c 00 3e 7e e7 93 bd 00 d8 a7 3d f8 41 2c 3e
       0.1255986 -0.07221888 0.081954956 0.1682204
000380 36 36 71 3d b1 1f da bd ab 77 0a bc bf 6f 2a be
       0.05888959 -0.10650576 -0.008451383 -0.1664419
000390 b0 cc 45 be a3 60 07 bc 85 b6 17 be 33 c9 22 3e
       -0.19316363 -0.008262786 -0.1481572 0.15897064
0003a0 0c 87 96 bd e1 e6 42 3e 00 f3 42 be cb b1 ad 3c
       -0.07349977 0.19033386 -0.1903801 0.021202942
0003b0 ab b0 43 3e bf 43 1a 3d 46 87 b6 3c 67 99 07 3e
       0.19110362 0.037662264 0.0222813 0.13242112
0003c0 82 9d e3 bd 62 5c 71 3e db 8d 7a be 4c 99 af 3d
       -0.111140266 0.23570397 -0.24468176 0.08574161
0003d0 34 42 cd bd ae 6c b6 3e 37 60 8e 3d 81 6b 45 be
       -0.10022393 0.3562979 0.06951945 -0.1927929
0003e0 9e 60 55 3e 72 35 51 bd 18 96 d0 3d 18 b1 d7 3d
       0.20837638 -0.05107636 0.10184878 0.10531825
0003f0 58 6a 76 be f4 2a 66 3e d5 21 4b 3e 45 31 f5 bd
       -0.24064004 0.22477323 0.19837125 -0.11972288
